data/model/indel_model_w5_p7_500_hg19.pkl_646.npy (npy, 1320 bytes, 1 tensors)

array f8 [155, 1, 1]
00000000: 4160 23c0 a413 973e 1121 8599 1356 f9be
00000010: 84cb 9518 eb1f f2be 8811 1a47 41de 04bf
00000020: 59f7 cfda 6efe f13e ffb7 5fd6 f0a0 f2be
00000030: f157 b469 bd2c e4be 8047 2f67 94c5 c3bf
00000040: 369b 4bd0 c096 c03f b4ae 720c 6da0 a0bf
00000050: 008b f10b 871b f1bf 6ab9 31ca da00 f0bf
00000060: 0535 e6d7 7043 3b3f 0881 435f 4e5c 753f
00000070: 3c2d c3bd 3694 ed3f 9677 44f0 0890 f03f
00000080: 8001 1491 f39d 373f 86e0 30b1 9fcf e03f
00000090: 699d 9087 0258 e0bf f551 e20c 53ba 2cbf
000000a0: 1565 fd1b 17e0 8cbf d33e 3363 6501 f0bf
000000b0: 60a5 1ce1 adb2 f0bf 6df4 1db9 3ebe 2abf
000000c0: 0817 3d6e 12f4 22bf e154 4dd3 8544 bd3f
000000d0: a83b 0230 5537 cabf eaa0 e1b7 7129 5fbf
000000e0: bbcc da27 fd3a d1bf 5194 569d 879b e9bf
000000f0: e4f9 5391 b41e 293f 981a 1072 bb6c 10bf
00000100: 3077 808e bb00 7fbf ab26 d587 a384 383f
00000110: 660e 21b2 e403 f0bf ea65 119a d309 f03f
00000120: e360 6312 c784 f0bf cc35 474d e197 fdbe
00000130: a299 8c12 bd57 213f 2caf 6331 cd79 d6bf
00000140: bdc7 2059 e044 d63f a416 8f21 a211 53bf
00000150: 265c 74a3 71a4 ecbf 79c3 1263 4a0b d4bf
00000160: f233 2579 bdd7 4a3f aeb9 4baa 42ff 633f
00000170: dc7d e26a eef3 383f f516 6284 3d08 f0bf
00000180: 06c7 2772 f50c f03f 5080 474b a424 873f
00000190: ff2a e758 a5fe f03f bfeb 9d9c 1508 f03f
000001a0: 1128 0f05 0e84 413f 141f 6e0c e339 55bf
000001b0: 7f7c adc0 ec28 f0bf 44ab debb ef4f dbbf
000001c0: e288 efd3 3d2a 473f 995e 78a1 9025 f0bf
000001d0: c6a3 8677 1716 f03f a928 364d 9854 56bf
000001e0: 00af 9a2e a142 80bf 23ee 3e80 0c18 65bf
000001f0: b84e 4ca1 fc69 f0bf cd1c be80 3553 34bf
00000200: 8094 a3cd 7558 5cbf fc21 5056 5305 f0bf
00000210: eec2 112a f80d f0bf 5503 91d1 45db 443f
00000220: 83f7 1b94 a206 f03f cbab 4549 c100 f03f
00000230: c874 5539 e825 f1bf 05ab 2b4d 8387 203f
00000240: 24fd 752d 8f3b f0bf 141e 59c1 a47c 3a3f
00000250: ab96 d41f 3c4d 23bf a917 de09 8d02 f0bf
00000260: 7c07 e82d 5e00 f03f a7c7 566d 5433 3f3f
00000270: 02b6 533b 3202 f03f dbb2 e093 205d 493f
00000280: 48ac af9d fb07 f03f 2fca ea21 7b01 f03f
00000290: 945c 8cd8 ca0c 183f 316c ac91 9331 273f
000002a0: 9cb4 d4c3 b29c 4f3f f91f 956e fae4 723f
000002b0: af2b 9e68 6f7e f03f e084 8317 4cb3 573f
000002c0: 409d 5235 2b78 6c3f 94d5 4743 2615 f03f
000002d0: 5168 1804 5308 f03f 8061 3c77 7c13 43bf
000002e0: 6275 612b 8904 f0bf bb43 1f59 b3dc d3bf
000002f0: 34f0 2f69 33df 473f f4d5 2db9 03b8 683f
00000300: b799 b224 6f8a 4e3f 02a2 3058 8011 f03f
00000310: a7a3 f347 0503 f03f 801a 98cc 6971 7d3f
00000320: 9e3f 1b9b 1f17 f03f 2ef5 66d0 0a64 f03f
00000330: 9cfc 19bc 320c 353f f772 185c 89fc 463f
00000340: cfaf f5ff 3105 f03f 31f4 111f d10a f03f
00000350: 1bd4 cee8 0002 f03f dab3 8568 497d 213f
00000360: e2ea ccdf 992a 56bf cde9 4bf3 d93a 21bf
00000370: caa7 0293 bafb 323f e772 40d3 6b15 f03f
00000380: 0df7 307f e1ef c3bf b04c 51e3 daa7 80bf
00000390: a6eb e7e4 a702 f03f 6f41 47fd 7746 f0bf
000003a0: c017 b9e7 b766 9abf 6655 b99d bb05 f0bf
000003b0: a02e f392 56d8 f0bf 1109 d414 a497 243f
000003c0: 18a0 b157 6b2d 293f 969b 5512 342d 393f
000003d0: 4dbc dae2 2d1d d2bf 8e5e 09ee e7ea ea3f
000003e0: 2dab e5fa 1b77 1d3f f9ba 5f5c ecca e8bf
000003f0: 95a4 5a34 c688 d73f ee58 3e1c cf56 31bf
00000400: 6095 d48c 45cf 67bf 6837 d5f3 d887 a7bf
00000410: a20f 4e2c 240f f0bf 8d4a edeb 3efe fa3e
00000420: dff8 4720 e5b0 e03f 8d1d f01d df60 e9bf
00000430: 6aaa 1f22 f710 35bf 660b 9b86 0c69 f0bf
00000440: e674 63b0 6749 32bf 4dee 5ffe 863e 82bf
00000450: 37c7 0a90 5201 f03f 30da 11f1 ce0a 97bf
00000460: 777b 7fa5 fa44 f0bf 07b1 7f64 e977 f0bf
00000470: f2c7 cb01 b4c5 2abf 05f9 c0e5 76f3 73bf
00000480: 5599 6111 e9a2 3c3f dfeb b44b 6908 f03f
00000490: 74f8 aa46 c303 f03f 7ab9 748e 832d f1bf
000004a0: 076c e507 f158 19bf 440f 4ab7 ee32 65bf
000004b0: f8df 55b7 5e01 f03f e22e b610 f9b2 f0bf
000004c0: 4f9e 5a08 8105 febe bedc 09c2 4f30 eb3f
000004d0: e43a 7e9f 4c62 d4bf
3.438701129516164e-07 -2.4162518088817012e-05 -1.7285042792146706e-05 -3.980290138108899e-05 1.716030026343378e-05 -1.776568878846668e-05 -9.620077710919386e-06 -0.15446715391459165
0.12960062189741856 -0.032473953027275654 -1.069220587400821 -1.0002086542332003 0.0004160070892787612 0.0052149831210217615 0.9243425089165735 1.0351647744605308
0.00036036678746145107 0.525344701839473 -0.5107433936836233 -0.0002191759471698165 -0.014099293271714811 -1.0003408312804154 -1.0436228555139095 -0.00020403400099758569
-0.00014460301383161672 0.11432682427160358 -0.20481362194229047 -0.0019019709139005921 -0.2692253960805819 -0.8002355645190936 0.00019164995379834717 -6.265539242642849e-05
-0.007569058077960197 0.0003741168255443165 -1.0009505232018454 1.0023990648536434 -1.0324164121903372 -2.8222352584530462e-05 0.0001323145200100131 -0.3511841757124212
0.34795387939368166 -0.001163872080938524 -0.8950737183066664 -0.31318912196279985 0.0008191752588487795 0.0024410535864866833 0.00038075037708470787 -1.0020117922990128
1.0031637629694514 0.011300357386915177 1.0621694062016898 1.0019737356039824 0.0005345409828063659 -0.0012955395957038917 -1.0099914099189673 -0.42675393435154185
0.0007069398778834191 -1.0091711337499076 1.005393473528089 -0.0013629424400698842 -0.00793958590960342 -0.002574943939149825 -1.0258756924348926 -0.0003101354238812082
-0.0017300749228124357 -1.0013001796343124 -1.0034104960761243 0.0006364909087396101 1.001619890739193 1.0001843321031056 -1.0717546691515043 0.00012610891152261424
-1.014540841657273 0.00040415785165179405 -0.00014726027431171315 -1.000622786088096 1.0000898164002754 0.00047608195503833845 1.0005361859761028 0.0007740410872024388
1.001948944055373 1.0003615689171388 9.174335549421076e-05 0.0001769535673127056 0.0009647248149683599 0.004612901925902684 1.0308679663309979 0.001446556385467361
0.003475269690699584 1.0051634433888 1.0020322952245986 -0.0005821569197648618 -1.0011073774870387 -0.31034549430210817 0.0007285119085049863 0.003017432472399712
0.00093202998086355 1.0042727894707473 1.0007374582876112 0.007188237455472035 1.0056453760953228 1.0244243756017783 0.0003211616386593148 0.0007014914228339043
1.0012683866907428 1.0026408399273914 1.0004891485271006 0.0001334335431794332 -0.0013529303243575088 -0.00013145361449302812 0.0002896624091684978 1.0052297832509625
-0.1557580824900743 -0.00813265806406202 1.0006483976019154 -1.0172042745290033 -0.02578246452164712 -1.0013996277897035 -1.0528169384223602 0.0001571071428899192
0.00019208846410667733 0.00038416405944590706 -0.28303095964196673 0.8411750458862615 0.00011240108753944314 -0.7747709087542197 0.36772303688719293 -0.000264573635143774
-0.002906452026439396 -0.0459583089492373 -1.0036966066991018 2.574267159200865e-05 0.5215936308375396 -0.7930751404500583 -0.0003214457848332077 -1.0256467111618917
-0.0002790334841743083 -0.008908323896313375 1.0003228785175915 -0.022502168143967605 -1.0168405976071122 -1.0292753148779086 -0.00020425627089754 -0.004870857661499754
0.0004369563115517357 1.0020535428327475 1.0009186516249686 -1.0736117901502369 -9.669276366734712e-05 -0.002587763063560818 1.0003344689885107 -1.0436945584105435
-2.8630733615612945e-05 0.8496474065604145 -0.3184997136640233
