data/model/indel_model_w5_p7_500_hg19.pkl_601.npy (npy, 1400 bytes, 1 tensors)

array f8 [165, 1, 1]
2.3310134103611387e-07 -6.327324209655076e-05 -0.00010757191619240552 -0.0001017182456801205 -0.00010307224797305129 0.0008953855355216302 6.625852314600261e-05 -0.24297862915530466
1.007146158249823 1.0460360356561647 -0.00011208728417836933 -0.0001255590184667386 -0.3357920170070055 1.005159114056696 0.0005805041982540313 1.0262297164558543
0.14417135561181468 1.0079812330365143 -0.0021474039229439877 -0.003135798095729594 -0.0015681069676881793 -0.001146083830392378 -1.0016516446723147 1.0007326418142402
-1.0045428127497058 -0.005226052933118147 -0.006258964859486571 -1.0068631782464963 -1.006023084096309 -0.004193141006749723 -1.0046846215080696 -1.0032798900167408
0.002465102216722174 1.004458408201765 0.0014783438119364 1.000649394415739 1.0023130525127246 5.7229698747529906e-05 -4.060120822388921e-06 -6.34246322055638e-05
0.0003344474550344765 0.00010826658463621876 -0.39106231879369124 0.6189800170791753 0.031377771917195346 1.1365077929395389 0.8735489484364105 -0.00020865450959417256
0.0013553250900615536 0.27685591706778523 1.0675575855292345 -0.00028102096897050793 -0.37086001129258767 0.309544881096825 0.0016776632975393324 0.007793641540626485
0.0028723402982179327 0.2383569560164809 1.0148004136527062 0.02255754526785214 1.0274459100261288 1.0187473310490727 0.0009249275137747597 0.0035184358200909347
0.29400025727565227 1.0083767159921817 -0.000804078023769357 -0.9530575794861537 1.0066190472436911 0.0031088925754730232 0.007304414285102937 0.003008514209630903
0.0006436712157070818 1.006669616321843 -0.5747781756659405 0.0083294109459595 1.01276145723031 -1.0020245772001033 0.01661219778195901 0.00859637047161792
0.32382465341235717 1.0235773901758303 1.0600983923895353 -0.0002125621113173252 -0.0004597866995957878 -5.484125566881382e-05 -0.775204480500601 0.9266965520614001
-0.003159422992442281 -1.0043155052583495 -1.0008853956061963 1.0055037286470274 6.470755347528545e-05 7.033991385038575e-05 -0.00015879584435654116 6.793997582344764e-05
0.0009565774165816064 -0.0033660780229011287 1.0038286043884863 -1.0350277686576153 0.0011180559243783752 0.6602923055608189 -1.0112480585180732 -0.00021670786456137517
-0.008837620993322626 -1.071033468087433 -0.5328116350179282 -0.0001317347064821872 0.10719766709481289 -0.38972724484098553 -0.005600455528676273 -0.016718097591141397
-0.009490125623547549 -1.039495033766014 0.2676091318861786 -0.08899781726707987 -1.0702111731672197 -1.1266217678422117 0.000514247605679545 1.0213880755092921
-0.0005606120093690638 -1.02666017313859 0.020543197548393066 0.00012554047729781135 0.002189930271230352 0.0094623336232732 1.026990332946477 0.0038561114956493503
1.0019342708532555 1.009318360894108 0.001821707316696537 0.0020762515335895227 0.7050838214290428 1.0096002684876528 -0.007978245033683412 1.00049479334547
-1.0167262021119303 9.856136331632805e-05 0.00043995713805785144 -0.009220513276258654 -1.0492256809899296 1.0045555234939028 0.00047922734299409746 0.601722654137246
-0.21095309837467854 3.566764236823458e-05 -1.042707767590156 4.3312959088381984e-05 -0.41951095261256577 0.04793506145198773 -0.0023020695641458064 -0.00841919685825988
-0.003139253959449362 -0.004851296132233192 -1.006850583346216 -0.0038749581144521816 -1.004610508823466 -1.0031705874952754 1.00200086803738 -1.030438077875656
-0.00011738124481935104 -1.004687393501823 0.0002324759173704543 1.0010407837192554 1.0001717533418915
00000000: 769d 5014 4d49 8f3e 2623 a605 3296 10bf
00000010: 74e9 b372 0733 1cbf 5c71 8727 32aa 1abf
00000020: 15eb 96bc 0f05 1bbf 2b01 d3cb 0957 4d3f
00000030: 3b9d 8dc2 885e 113f 40aa ec78 ec19 cfbf
00000040: b999 3f4a 451d f03f 9e4a 3948 90bc f03f
00000050: 33ab 1ee1 0c62 1dbf e579 8dc1 0f75 20bf
00000060: c563 d3cc 9d7d d5bf c265 22b9 2115 f03f
00000070: e9fe f945 9f05 433f abc7 e5d9 6f6b f03f
00000080: 9fb5 affc 3474 c23f 33fa eded b020 f03f
00000090: f8e0 d9b3 6e97 61bf d299 93c8 3eb0 69bf
000000a0: 4076 2409 1eb1 59bf db09 7b24 06c7 52bf
000000b0: a1a2 fddf c306 f0bf 081c 0a3b 0003 f03f
000000c0: c511 037c 9b12 f0bf 6061 f5e6 e967 75bf
000000d0: c08c 0d16 00a3 79bf 5ad8 6190 1c1c f0bf
000000e0: 6e6f 53a9 ab18 f0bf 0036 ddb7 d32c 71bf
000000f0: a2bd 822e 3013 f0bf bab3 c536 6f0d f0bf
00000100: 5528 deac b131 643f 66b3 d6fa 4212 f03f
00000110: 00c9 c494 9f38 583f e371 7cf0 a802 f03f
00000120: 5b56 4e69 7909 f03f 62f3 d079 3d01 0e3f
00000130: e528 7b83 8507 d1be a0c5 63e2 5aa0 10bf
00000140: 77c4 b0e1 18eb 353f 7816 d4c2 a561 1c3f
00000150: 58ad 7a3f 2a07 d9bf 4a71 472e afce e33f
00000160: ac51 6950 bf10 a03f fc30 a5cb 222f f23f
00000170: 96aa 9fec 1cf4 eb3f a72f f996 4859 2bbf
00000180: 631c fc3b a534 563f 8aa7 60e1 01b8 d13f
00000190: d71d 4743 b714 f13f 012e 08df bf6a 32bf
000001a0: af55 f9a0 2bbc d7bf e61f 3d55 95cf d33f
000001b0: 2ecd c83f a17c 5b3f a830 8ab8 39ec 7f3f
000001c0: 153f 9af4 bb87 673f e9b4 6e11 7b82 ce3f
000001d0: b9b0 c95b 9f3c f03f 0059 d03c 5319 973f
000001e0: f689 5f1f 6b70 f03f 8be3 5b00 ca4c f03f
000001f0: d165 1fb6 da4e 4e3f 14c1 f8d8 b1d2 6c3f
00000200: c6ed 8074 e6d0 d23f b2bf 939f 4f22 f03f
00000210: d903 6368 1859 4abf 6922 e39b 727f eebf
00000220: cb13 f792 1c1b f03f 6ba6 07fe d177 693f
00000230: 5105 89c7 3beb 7d3f 2731 7ac4 4fa5 683f
00000240: 393c 1169 8117 453f bcaa 7f99 511b f03f
00000250: 7e12 5e33 9564 e2bf 78db dc9c 020f 813f
00000260: 7941 975b 4534 f03f 80cd 4dec 4a08 f0bf
00000270: e5b6 c0b8 c902 913f 9ab6 5150 f99a 813f
00000280: dfda 020a 8bb9 d43f feae 7baf 9260 f03f
00000290: 05af 5dbb 29f6 f03f 5539 09a2 66dc 2bbf
000002a0: 0098 80d6 f021 3ebf cd4c 5132 abc0 0cbf
000002b0: dbce 6ea0 79ce e8bf fa6d 0d87 7fa7 ed3f
000002c0: ab19 a84d cae1 69bf 8a34 9f22 ad11 f0bf
000002d0: 1dc3 9267 a003 f0bf 7db8 e813 8b16 f03f
000002e0: 87d6 cd4d 73f6 103f af77 b384 6e70 123f
000002f0: 4403 a0ea 4dd0 24bf 8482 a2e5 5fcf 113f
00000300: a21f 335c 5a58 4f3f 14cb c560 2d93 6bbf
00000310: b834 2a95 ae0f f03f 8861 0d47 798f f0bf
00000320: 4ee7 5668 7751 523f 9be4 4554 1d21 e53f
00000330: 6ca8 b771 122e f0bf afdb d461 8267 2cbf
00000340: ba48 2069 7519 82bf 35b6 65fd f322 f1bf
00000350: bc91 6afc ca0c e1bf 141e 1e83 4844 21bf
00000360: 1d35 616a 4e71 bb3f 22f1 bc8a 4af1 d8bf
00000370: 7ff3 69d5 80f0 76bf ff03 9f89 8c1e 91bf
00000380: f829 8119 8f6f 83bf 3612 668b c5a1 f0bf
00000390: 3ff9 630d 8220 d13f 86d6 939a 8fc8 b6bf
000003a0: 7012 49c0 951f f1bf 0a81 fd8b a406 f2bf
000003b0: 8d14 0053 d2d9 403f 7c63 cd05 9b57 f03f
000003c0: 876f 7c1f c15e 42bf 6bc6 bb37 336d f0bf
000003d0: 60a1 80a6 4609 953f cc4a 177d 7074 203f
000003e0: c490 a7dc 9df0 613f 407a a5eb fc60 833f
000003f0: 2703 556a 8d6e f03f 00f3 6e18 da96 6f3f
00000400: c3e6 e03a ec07 f03f 29ae 7402 2b26 f03f
00000410: 8532 4756 cbd8 5d3f 64d2 eb0d 3702 613f
00000420: 053f 3ff2 0b90 e63f 22ff 729c 5227 f03f
00000430: 903f feeb e556 80bf 0ccb 13d4 0602 f03f
00000440: 95e9 b0b1 8244 f0bf c222 1054 57d6 193f
00000450: 4685 0485 41d5 3c3f 9879 ca57 34e2 82bf
00000460: ea99 1fde a0c9 f0bf 72c2 06d0 a812 f03f
00000470: 865f f8c3 1968 3f3f 6e04 19de 4f41 e33f
00000480: af2a 41d9 8200 cbbf f861 27dc 3ab3 023f
00000490: b45b 1157 eeae f0bf 1560 35f1 5db5 063f
000004a0: c439 7277 44d9 dabf 393c 89c2 f18a a83f
000004b0: 0748 b72f cadb 62bf 0689 5179 153e 81bf
000004c0: 009b de22 7eb7 69bf 55cd b2e3 f3de 73bf
000004d0: 69e3 765b 0f1c f0bf 4086 ff4b 60be 6fbf
000004e0: d6d5 0978 e212 f0bf fc9e 199a fc0c f0bf
000004f0: ea8b ec0f 3208 f03f f776 50a3 ac7c f0bf
00000500: b72d 3f6e 52c5 1ebf 75b3 9c16 3313 f0bf
00000510: 2746 a7ec 9878 2e3f 2495 4057 4304 f03f
00000520: 4ec8 af18 b400 f03f
