data/model/indel_model_w5_p7_500_hg19.pkl_76.npy (npy, 1464 bytes, 1 tensors)

array f8 [173, 1, 1]
0	0xbf114e1468f4bea5	-6.60133321062026e-05
1	0xbfa51a9ea94097ac	-0.0412187177283124
2	0xbfa6197f77565298	-0.04316328365090277
3	0xbfa64d42ecf97dad	-0.043558207919655124
4	0xbfa777fb6eb5e832	-0.045837266220545195
5	0x3fc26dcd7bd09604	0.14397591157573697
6	0x3ff0d195a6177993	1.0511681068379388
7	0x3ff5085558c252d2	1.3145345179702201
8	0xbfa780b88cc6cf31	-0.04590393751587241
9	0xbfa7a03aff467c14	-0.046144336377658274
10	0xbfdfa2d4320c5f4e	-0.49431328666240837
11	0xbff0224d09e80fc6	-1.008374251076917
12	0xbf8a20fa2a00980c	-0.012758211523827633
13	0x400f923068e18862	3.946381396658624
14	0xbfe19474b21e27dc	-0.5493720511305997
15	0xbfa314e284f57f73	-0.0372687136939466
16	0xbfa40a44f0c9c8d7	-0.03914084853467308
17	0xbfa569f73fde0844	-0.04182408003454488
18	0xbfec311da789de67	-0.8809955856549551
19	0x3fe6cb93920e3876	0.7123506405494158
20	0x3f8b69d374bcb8d0	0.013385440826450795
21	0xbfcbccc7ee99cfbc	-0.2171869196932884
22	0x3ffd11d9f817da26	1.8168582621707485
23	0x3fba9e012f4d2ac6	0.10397345928974308
24	0x3fcfdd3c82cbf8aa	0.2489390982299871
25	0x400341a8b48e73b7	2.407060061070719
26	0xbff20b0f0156bb95	-1.127699856977164
27	0xbfaab28996557d7a	-0.052143382645904304
28	0xbff1c0e651ff3344	-1.10959465055494
29	0x3ff46dc33f6072e6	1.276797530713503
30	0x3f85b66b87d811db	0.010601844866877144
31	0x3fde55bb96a5534b	0.47398271285537835
32	0x3ff99e155e795951	1.6010945978537914
33	0x4002b7121b0a5baf	2.3393900024925283
34	0xbf7997e3a6c58ee1	-0.0062483685145229015
35	0x400176b54fd2de37	2.1829630123354735
36	0xbf90cb00bc20bb41	-0.0163993944954044
37	0xbfa582bd9dcae6f7	-0.04201309729746854
38	0xbfee324c32f4e88c	-0.9436398501632239
39	0x3ff1d4f277a5d566	1.1144890474073121
40	0x3fb07b5b7a62e4d7	0.06438228357264407
41	0xbff0f3338c792182	-1.059375332568465
42	0x3ff15b3e36e5b6c7	1.0847761291910716
43	0x3f80a89e253e9973	0.00813411284600527
44	0xbf73eda1460cb94b	-0.004865293479083664
45	0xbf922553773c1214	-0.01772051253557734
46	0xbfa33e937623a180	-0.037586792155539506
47	0x3fb524a8eb7aadd3	0.08259063481334943
48	0xbff110630ded4c33	-1.0665007156392334
49	0x40144f6f1d647b1a	5.077572306878915
50	0xbfa620f235c0cd5f	-0.04322010904470618
51	0xbfea5b1815de550d	-0.8236198832625249
52	0x3fe85549fc01d4aa	0.7604112550749467
53	0x3f9a8ad0fb30729d	0.025920167285323193
54	0xbf9437172927ab1c	-0.01974140347185048
55	0xbfe8fee40506bdb0	-0.781114587609343
56	0x3fde3ef9e459c033	0.47259375858175473
57	0x3fa595643fca05b6	0.042155392443429404
58	0x3fea507e823a1700	0.8223259490484622
59	0xbfa586030c727180	-0.04203805472318134
60	0x3fa72da32d9a24ff	0.04527006084124174
61	0x3fd6bec41b5f59a2	0.35539343522159517
62	0x401137012bfc37c4	4.303715407628207
63	0xbff0f6eb85b7532d	-1.0602832053456936
64	0x3fa08ff34660c8a4	0.03234825357539364
65	0xbfb8d9c2da416426	-0.0970727713442022
66	0xbff0e58b0e4e3403	-1.0560408171470506
67	0xbff2a0c597181780	-1.1642509367097489
68	0x3fa3717e19a25484	0.037975254658854346
69	0xbfdb512c6c84b1ad	-0.42682943913930665
70	0x3fea730b136bc777	0.8265433673206947
71	0x3fae0c4504e8076a	0.058687359665795594
72	0x3fbe423e5ae4de87	0.11819829672901437
73	0x3fb00df96e379382	0.06271323147627864
74	0x3fca03069c358276	0.20321734073060654
75	0x3ff3ec8317d40b0b	1.2452422076027598
76	0x3ff43d794267a451	1.2650082200946324
77	0x3fa81db5930e6326	0.04710166378135332
78	0xbff1cafd6eff7a2f	-1.1120580993516673
79	0x3ff13da64c38fb29	1.0775511720127702
80	0x3fe5899df3353998	0.6730489492563718
81	0x4003ca54faabcd2e	2.4737948974303867
82	0x4010057f85dbd63a	4.00536927370336
83	0x3f9b6592f492e7fe	0.026754661729434297
84	0x3f9411c1999c31d2	0.0195989847189127
85	0xbfb0af23e3ab475e	-0.06517242725683789
86	0xbff1b54bd92b6e1c	-1.1067617877187166
87	0x3ff0a256e9b3503e	1.0396336678432045
88	0x3fa33dca6097cfdd	0.03758079938043555
89	0xbff2b587c5ed3262	-1.1693189364915715
90	0x3fe6617c36b87314	0.6994000500450022
91	0x3ff749feefd175c6	1.4555653922937934
92	0x3fa55b8abc5f7b5f	0.041714034552333905
93	0x3fa3e2e06f2717f5	0.03884030682415577
94	0x3fa3ed9815180702	0.03892207391255732
95	0x3fa588f422acfe90	0.04206049845970228
96	0x3fa690245f2365a4	0.04406846677165824
97	0x3f9eca74f33d02a9	0.030069186540688495
98	0x3fe0cd6f39e71b27	0.525077450839352
99	0xc00a82884d929a19	-3.3137365398754466
100	0x3fa7534adc5b58fe	0.04555734577086133
101	0x3fef1cae5018aed6	0.9722510876067314
102	0x3fec4de162996609	0.8845068860784419
103	0xbfa9dca17af7186f	-0.05051140428581468
104	0x3f9b40a892166526	0.02661384002349112
105	0x3ff1f4ad2cb6d8d6	1.1222354647302857
106	0xbf94335560cf7501	-0.01972707179435407
107	0xbfc3747936cc0077	-0.1519919889033223
108	0xbff4bd5e7209fda9	-1.2962326483392224
109	0x3ff133441ea5a7a6	1.0750161358978203
110	0x3f9ceff74ffef549	0.028259147889675238
111	0xbf875933939388ef	-0.011400607052966609
112	0xbfacf8ebe6637189	-0.056586620210256795
113	0xbffb0e613ded7dcc	-1.6910107058573542
114	0xbfd411e53d92b791	-0.31359225285529485
115	0x3fb15ac689958884	0.06779137476908842
116	0x3ff30cd230f9e192	1.1906301415566287
117	0x3ff114de6633c5d6	1.067594908931246
118	0x3fa42860086b837d	0.03937053778441333
119	0x3fa49c5810824a56	0.04025531007313947
120	0x3fe7bde93c6b01ca	0.7419325046576486
121	0x3fcdea32eee50512	0.23370968498969852
122	0xbfd867da5fbc5dc0	-0.381338685504911
123	0x3ff1282cf3718a34	1.0723084935676868
124	0xc0178b6d3768abd6	-5.8861588151584865
125	0xbffaa8d91d1504d5	-1.6662226806659437
126	0x3fa85a0378f6255f	0.047561748996552515
127	0x3fa91126edf7eb5c	0.04895898489845393
128	0xbfb1fe53486d8a3c	-0.07028694647082373
129	0xbff3a4721094a9f8	-1.2276478431400601
130	0x3ff0c060b4d9d1f2	1.0469672264563283
131	0x3fa91e9469757631	0.04906142985667506
132	0x3faa629d2834899d	0.051533614309181554
133	0x3fad9950a4a8e3f3	0.05781032571798752
134	0x3ff0eed3c40fe7d9	1.058307424419118
135	0x3ff12cb4dd2966af	1.0734146727685745
136	0x3fa9a349bdddf191	0.05007391398155215
137	0xbff6de2539401f85	-1.4292347179743683
138	0x3ff0ddc1da5d86a4	1.054139950742333
139	0x3fa7f5bf99db4937	0.046796786814996265
140	0x3f736e1618a3d536	0.004743658364750039
141	0x3ff0db57a38e84df	1.0535503758367708
142	0xc018e5541db0b886	-6.223953689490491
143	0x3fa8bffae5e3045d	0.04833969169840977
144	0x3fe9269fa8066fa9	0.7859648019543687
145	0x3ff0d8921e740ff5	1.0528737248978335
146	0x3fa2ec11e2e8afb3	0.036957320164531814
147	0xbfac2023ce1283b6	-0.054932707696259284
148	0xbfdc3969f4a65500	-0.4410042657048763
149	0xbfe5fad86050e270	-0.6868707543536186
150	0xc000b930f6d5fcee	-2.0904254230550725
151	0xc01b0c35101d101a	-6.7619211690653405
152	0x3ff0dae384e8ddee	1.0534396354468032
153	0x3fa9c8b99b24cc03	0.05035953539699991
154	0x3fab147286af4b60	0.052890376034745
155	0x3ff0eaead0541833	1.0573528421241576
156	0x3ff0dbc00b107e2f	1.0536499435619466
157	0x3fa8b44a2c3161e0	0.04825050153221233
158	0x3ff0d76bd97518da	1.052593087618837
159	0x3ff0cbe02d117504	1.0497743378139726
160	0x3fa52b8fa577bf3b	0.04134796995992792
161	0x3fa9846721a9cd9b	0.049838278636254084
162	0xbff3fdf46903889c	-1.2495006658651056
163	0x3faa151d6381b4ff	0.050942343136606276
164	0x3ff0dad4b978b731	1.0534255261404264
165	0x3ff0f77d36cc9ebf	1.0604221478078413
166	0x3f88e03d6d1ed2d3	0.012146453754988162
167	0x3fab7e44208cfe5c	0.053697709058266624
168	0x3ff0f2ccbf096ade	1.0592772924780358
169	0x3ff0d9313d0df299	1.053025473112177
170	0xbfb22a2d17a16f4e	-0.07095605685156878
171	0x3f931b582a637d13	0.018658998095699774
172	0xc0129a64f0b5a0e4	-4.650775681577418
