data/model/indel_model_w5_p7_500_hg38.pkl_787.npy (npy, 1288 bytes, 1 tensors)

array f8 [151, 1, 1]
00000000: b28b 1c59 a44c 88be a0da 2f05 f049 febe
00000010: 8096 9578 9db3 5f3f 00a8 b4a9 a746 423f
00000020: ad4a 765f 1a05 f03f d512 de19 8700 f0bf
00000030: 806c 288e f321 6b3f ff03 ee2f 7d0a f03f
00000040: 4cf3 0b10 bd10 f03f 50c3 1294 134d ffbe
00000050: 82cd af5b db02 fdbe 25a4 42b6 e116 02bf
00000060: 9c8f 3ddc 0f4e febe fc49 9eff 8a38 00bf
00000070: 3adc 3eb7 66e7 c0bf a812 3778 2a5a e53f
00000080: 3016 7cc0 b042 f03f d4a8 35c6 3f0f 4abf
00000090: cd7c aa58 c282 06bf 7356 14f8 a529 c5bf
000000a0: 462a 9e12 f517 f03f 00f9 cf4a f735 64bf
000000b0: 1c22 ce00 5586 ecbf 2e72 7914 767d d23f
000000c0: d60d 4a9f 70d3 313f 0079 3a42 cd56 703f
000000d0: 0046 9e8d 5d20 7f3f 4aa0 295b 9d2a f03f
000000e0: 0275 6d55 180a f03f 007d be26 84fe 543f
000000f0: e11a ab75 a714 f03f 9a38 7f85 4c9d b13f
00000100: f483 f6fe 4b0d 203f e053 9a52 796b 683f
00000110: 176f 1ad3 ef00 ec3f 6f11 ef68 ec13 f03f
00000120: 607b 737b a008 f0be d009 7e31 fdba eebf
00000130: 13f8 238e 769d b13f 2587 7cfc 67a2 4cbf
00000140: e9b2 5c07 d6e8 393f 00cc 5b68 c40f 5c3f
00000150: 66d9 aebc e908 f03f c9ee 9ac0 2405 f03f
00000160: e478 293f eae4 1a3f a928 d9da 7d02 f03f
00000170: de74 023e 5603 f0bf 26b9 f76b 7a98 62bf
00000180: 00ae 1b2a 81e4 5bbf 8005 2d5f c3af 53bf
00000190: 7087 988b e507 f0bf 7144 0806 3503 f0bf
000001a0: c0d3 7345 5d41 6abf 7e02 badd 480b f0bf
000001b0: f398 7c8d 0e0f f0bf eeb5 273d b412 f0bf
000001c0: 6af8 2d3c df61 fe3e 903a 3c52 9832 0f3f
000001d0: 6fc3 fc88 9516 143f 1b6b 63ad c7b5 3cbf
000001e0: 4a52 b827 91de 31bf 0bef c19f 161a 87bf
000001f0: 627c 9045 cd00 f03f 6dda 7627 2b91 f0bf
00000200: cf0e a193 a8bb 903e e2df ebc6 41ec eabf
00000210: c8b3 e55a 1125 d03f 3ff2 9c50 a557 f0bf
00000220: 5d46 cd54 8dfa 163f fb68 cd92 6072 3d3f
00000230: fa60 fa2c b63a 513f 4a7c 571f d711 f03f
00000240: 72fc 6018 db04 f03f 209a be8e a613 363f
00000250: b539 fb8f d787 eabf 99af 923e 2a9d ee3f
00000260: 7b1d e36a 9b17 123f 8701 78d0 429a 6fbf
00000270: c1d4 ef56 30b7 f0bf 5653 3a17 8138 e7bf
00000280: d88d 63cc 3371 153f 4c30 d122 709f d13f
00000290: ad47 482a 8a5b aa3f 5120 9c82 5763 47bf
000002a0: 2da6 9b5f 14ee 57bf 00ee 36f8 7521 60bf
000002b0: 78b0 d622 f192 5cbf 31c2 a927 c634 d9bf
000002c0: b5b9 5741 375d ecbf e5d7 07f2 ef35 f0bf
000002d0: 1479 6873 513a 403f 4693 e267 95ed 5b3f
000002e0: f8fc f7f2 911b f03f 8183 a500 7e06 f03f
000002f0: 20a8 1241 4b37 79bf 574c 373e d900 f03f
00000300: 5ef7 8939 ee33 f0bf d028 e7e0 a8b4 00bf
00000310: b79d 3f9c 1501 58bf 8059 3974 acc4 70bf
00000320: ce09 7760 aa0b f0bf 08f7 a89f 7913 f0bf
00000330: 1c5f 7a67 9a02 f03f 744e 9e90 8508 213f
00000340: ab36 a7a5 e136 2a3f 013a 3d5d 7642 e8bf
00000350: d92a df50 8b04 f03f dbf4 7f47 1708 f0bf
00000360: 8338 8dd9 27c2 11bf a829 daee 5806 503f
00000370: d5f1 7118 87b2 7f3f 800e b0ab 4807 873f
00000380: e701 e794 fc2c f03f 5733 d009 2d30 f03f
00000390: ebec a100 fb02 f03f a8cf 25dd 691f 3a3f
000003a0: 9fa0 8d3f af0f f03f 0062 c60b c889 333f
000003b0: 1f2c c6d3 4970 383f f50d ed8e ba07 f03f
000003c0: 5c20 c367 9401 f03f a640 49c1 e708 f0bf
000003d0: 6091 94f0 ff48 17bf 480a ffb4 40a8 37bf
000003e0: cc38 b35a 80ea 52bf 3235 1635 cc19 61bf
000003f0: 4d33 a5b1 4ed9 debf 38f3 b40d c4ca 8fbf
00000400: 6a66 931b 573b 4e3f c105 0af5 4719 f03f
00000410: e3c4 a141 2c04 f03f b309 9fb0 2289 103f
00000420: b117 d028 dc6d 613f bf4c 5bd0 e968 f03f
00000430: 6e12 f7d5 101c f03f 3138 373d f2b2 22bf
00000440: 6b35 8e49 2a9f efbf df2a c43c b518 a93f
00000450: 820e 3ce2 5180 dd3e c711 0064 6e3f 61bf
00000460: 0064 6526 3755 12bf 7937 c1b8 4003 f03f
00000470: f121 8b84 aa0c f0bf 0bf4 4f08 bc4c f0bf
00000480: 581d 7bb9 f7c4 f53e f079 6bb9 e571 4cbf
00000490: 32be eaa8 6a1b c3bf 7d57 9662 a947 f0bf
000004a0: b4ba 92a5 fde7 053f ccd0 3d80 a02c da3f
000004b0: 3ab4 6582 59e0 bebf
-1.8104450965572853e-07 -2.8885668438472845e-05 0.001934913425736623 0.0005577391306463841 1.0012458542811757 -1.000128842396568 0.0033120877208268618 1.0025607940917778
1.0040865542243465 -2.9851036064956857e-05 -2.7667197837600358e-05 -3.450275724620919e-05 -2.8901032933417386e-05 -3.093885602746882e-05 -0.1320618052247669 0.6672565792037704
1.0162818449911235 -0.0007952748677955376 -4.2935901622737084e-05 -0.16533350575689418 1.0058489539393505 -0.0024671392370684275 -0.891397954533264 0.2889075469918535
0.00027200221601494706 0.003989030639472313 0.0075992254659396075 1.0104039727248328 1.002464612676079 0.001281384519621842 1.0050425144597102 0.06880644091799795
0.00012246658978390358 0.002980935057005571 0.8751143572912693 1.0048641299227616 -1.5290926708706894e-05 -0.9603258101126873 0.06880894632556105 -0.000873852514789973
0.000395347836603928 0.001712743572565456 1.0021760340146897 1.0012557529106962 0.00010259322861247731 1.0006083058129127 -1.0008146688699564 -0.0022699729013232637
-0.0017024289485857436 -0.001201573174242604 -1.0019278958283984 -1.000782989085817 -0.0032049962716151625 -1.002755037421735 -1.0036759878944934 -1.0045664204475275
2.8974831149046835e-05 5.950476977833075e-05 7.663047494755962e-05 -0.00043808102544822127 -0.0002726654417711012 -0.011280228376783016 1.00019576238244 -1.0354415456364692
2.493417415908647e-07 -0.8413399586852359 0.25226243855177843 -1.0213978909442998 8.765685670411015e-05 0.00044932229757467496 0.0010515955981756351 1.0043555473601082
1.0011855079935938 0.00033686462733798113 -0.8290822803626755 0.9566851827744244 6.901632397947846e-05 -0.003857737061253089 -1.0447238346071546 -0.7256474927586207
8.179548885638795e-05 0.2753563251506008 0.0514796425451459 -0.0007137467666504892 -0.001460571189847558 -0.001969080361701847 -0.0017440180630315088 -0.39384607194282056
-0.8863788868164223 -1.013168282921009 0.0004952333172843237 0.0017045935669923336 1.0067309847798338 1.0015850091224083 -0.006156248056109731 1.0002071790993534
-1.0126783607115253 -3.1863597644470076e-05 -0.0014651022947819012 -0.004093812607229075 -1.002848030868893 -1.0047546612472065 1.0006355325803673 0.00012995367461298183
0.00019999985199919043 -0.7581130810811488 1.001109424500717 -1.0019753258669002 -6.774299835152386e-05 0.0009780758368004103 0.007738616673233574 0.011244361629002997
1.010983068132299 1.0117617019015677 1.0007276558597435 0.0003986009079632821 1.0038292391346102 0.00029812940535969834 0.00037290384695926217 1.0018869002386712
1.0003856709681918 -1.002174143814082 -8.882581837050185e-05 -0.00036098079453609046 -0.001154542299264305 -0.0020874966073224583 -0.48201339100051116 -0.01552346388654656
0.0009226012545255461 1.0061721393434342 1.0010187686678413 6.307863455304908e-05 0.002127580641629622 1.0256136073046915 1.0068519933712667 -0.00014266211529306982
-0.9881793438559446 0.04901663176322812 7.033645974766449e-06 -0.0021054416720309474 -6.993435963432992e-05 1.0007941452963378 -1.003092305896754 -1.0187340092372803
2.076092240946062e-05 -0.0008680698109307366 -0.1492741894521586 -1.0174955226006823 4.1782787499546585e-05 0.4089738132818297 -0.12061080392386794
