data/model/indel_model_w5_p7_500_hg19.pkl_991.npy (npy, 1336 bytes, 1 tensors)

array f8 [157, 1, 1]
-5.340614757481783e-08 -9.168054150901883e-06 0.00033599639857247025 0.8853214158837942 1.0008685232722454 -9.550814140368411e-06 -1.325034406799385e-05 -7.25288111650536e-06
-1.0690838935663636e-05 -1.249576830805585e-05 -0.1943657925887816 0.49952533721266407 0.00011272898676963854 1.00811985335049 0.039105545937700714 0.00016009803337090872
0.00011875395062618471 0.041954715714362475 0.5664879176234295 1.0052730797299616 -4.520914318665224e-05 -5.6959711442102273e-05 -5.182843040210794e-05 -0.4417029576450857
0.5549106751832675 -0.0003965863752767272 -0.7940264341273087 1.0005989953713041 0.00011073975649987607 0.0005759474644802207 1.0011522922159606 0.826304474842842
2.9834068155468305e-05 -0.1284255984712068 1.0007011940961206 2.4281387047766223e-05 -3.783881961531449e-06 -1.6157766910912306e-05 7.594847452320026e-05 -0.36482916986459
1.0047693858069071 -0.9041308627189713 0.00027153505816219267 1.0053975224580072 8.275688948312983e-05 0.9924803522838791 -0.1338892024760564 0.0001469021261420802
1.006613778292113 0.00010350062950569118 0.0008883928964399601 0.5568507159241718 1.0059055182862593 1.4978945264984159e-05 -0.0246945125646638 1.0016826193464652
9.200188132949035e-06 1.3824341428905922e-05 2.4194266687213385e-05 3.740714616107388e-05 5.572575183589961e-05 3.3619883903949895e-05 -0.006407911973603275 0.8154986021571704
0.00011443607314504539 -1.0008632538817062 0.7565080195902 -1.0819387146120362e-05 -1.0108340111352636 -4.0394553900289683e-07 -0.6945319645478859 0.12195508362809786
-9.404628157334566e-07 -0.0019259197095003733 1.0000831793022642 -0.003914298739580065 1.0000018323322093 -1.0059445197515968 4.955338858645226e-06 -1.0016372078560403
5.792666298183076e-06 -0.2497647079058842 0.47920531195672667 -2.389229361454271e-05 -0.00016147171595369818 -0.0006150558875948505 -0.0004999019326559267 -0.07377679023131825
-0.6807715162149293 -1.0122794061204246 2.0321940140573146e-05 -0.0017805998211392893 -0.3172536143113627 -1.0086712294444213 6.424686114739906e-05 -0.5854006376904943
0.3427340308311123 1.6079341023911516e-05 -0.0003084920078879109 -0.0018548535324996007 -0.4961335357667084 -1.0041281798721282 1.0008147965514544 2.234204322606916e-05
-0.00017347133287575332 0.670562763966702 -0.6813419795040548 3.4188404057852015e-05 -1.0006250565114816 0.22538075457172788 -3.673180451036043e-05 -9.379825815895122e-05
-3.405131527575922e-05 -0.0002691471714294584 -3.023567984718252e-05 0.4207593437671741 -0.8342639350896172 -0.0010280424976319817 -0.2974539866144415 -1.0054999356037198
3.064560637894093e-05 0.00018417860561503526 0.7850661060438439 1.000144311854002 -8.110296340849871e-06 -1.00638427831229 0.16374277421332192 -0.00045119360740568154
-0.0007108768936711994 -0.0005896059960597385 -0.954482585550278 0.04724907721762634 -0.0025905758066488427 -1.0022760142357003 -1.0029188004569298 -6.166867800740484e-05
-0.0009963094274834106 1.0000073259347722 -1.0020039525303845 3.179539694019573e-05 -1.0014035742430583 1.0002888782728425 2.6238075377739757e-05 -0.00024674535419797557
-0.33831465267556987 -0.0009618976164631662 -1.0015771021896929 -1.000661454321066 3.683146219709588e-05 9.882411174220631e-05 -1.001806583741005 0.00011176390761655653
1.0019466657194478 0.7462170352970098 -1.2232239047162653e-05 -1.0023512050312822 0.23438664388871916
00000000: b76d a2c4 15ac 6cbe b26d 93c4 0f3a e3be
00000010: e40c 1f8b 1505 363f ff6a f593 8d54 ec3f
00000020: 3fcd 70b6 8e03 f03f cc4b 77e6 8d07 e4be
00000030: c24b fe6b b9c9 ebbe cb9f d6c7 b86b debe
00000040: 90dd 0db7 996b e6be 9cbc af51 9d34 eabe
00000050: bfa1 5071 fae0 c8bf 4d83 b61e 39f8 df3f
00000060: 4166 f63e 1d8d 1d3f 326b 8948 4221 f03f
00000070: 980f ca61 a405 a43f 29ff 8ca2 fffb 243f
00000080: 0637 3b56 7121 1f3f bef4 cfa7 167b a53f
00000090: 5bb2 f844 ab20 e23f 86d4 8f39 9915 f03f
000000a0: be92 ec54 deb3 07bf 32e4 5cc8 00dd 0dbf
000000b0: c510 034f 4b2c 0bbf 9874 687b dc44 dcbf
000000c0: 14a1 4308 d4c1 e13f c0c7 0883 9dfd 39bf
000000d0: ae8f d71f aa68 e9bf ba7b 9817 7402 f03f
000000e0: 3ffc b687 9e07 1d3f d590 17c3 65df 423f
000000f0: b620 1644 b804 f03f 79a1 ff14 1671 ea3f
00000100: bde9 738d 8548 ff3e 7f97 b300 4070 c0bf
00000110: 3360 5b41 df02 f03f d75b 5c36 fc75 f93e
00000120: 5dbc 7f1b d3bd cfbe be1f 8f49 51f1 f0be
00000130: b582 66db d0e8 133f dc7e 4c72 5c59 d7bf
00000140: b500 4110 8913 f03f f8d4 d5d8 a3ee ecbf
00000150: 6e54 cc31 9acb 313f 2dfc 66b6 1b16 f03f
00000160: 26a4 0f89 b8b1 153f 116b df27 66c2 ef3f
00000170: 240a f608 4823 c1bf fe2c ada7 3741 233f
00000180: 5f7b 970c 171b f03f 539c 7e46 cf21 1b3f
00000190: cdac d537 611c 4d3f 8cc0 b497 b8d1 e13f
000001a0: 937c 7e62 3018 f03f 4992 b38f c269 ef3e
000001b0: fb6e 6caf 8449 99bf f308 b15a e406 f03f
000001c0: 5293 8e3a 504b e33e f8b9 b704 e3fd ec3e
000001d0: 5f09 c558 995e f93e c500 54c1 b39c 033f
000001e0: 928c e140 6237 0d3f b708 376a 62a0 013f
000001f0: a6de cbc5 2e3f 7abf 425c 4686 9018 ea3f
00000200: 3b71 3dc4 acff 1d3f 8a0a f32f 8903 f0bf
00000210: 01a7 694e 5035 e83f 234a 1f3f 9db0 e6be
00000220: d52a b848 602c f0bf 649c bb44 bb1b 9bbe
00000230: 4b50 3819 9b39 e6bf f37c c3c7 7238 bf3f
00000240: adc6 4f9a 838e afbe 808d b08a e48d 5fbf
00000250: 7a20 4638 5700 f03f 951d 2c91 7008 70bf
00000260: 1fe9 dceb 0100 f03f ccc6 de47 5918 f0bf
00000270: 1e28 752c c1c8 d43e d72c a3bc b406 f0bf
00000280: 6dea d7fc d34b d83e 474c 133a 4af8 cfbf
00000290: 921c bbc1 4cab de3f 257b 4bea 890d f9be
000002a0: 64fe 7e7a 172a 25bf 9641 1276 7627 44bf
000002b0: 2ef8 d939 7b61 40bf 4253 3f25 09e3 b2bf
000002c0: 6620 c658 e1c8 e5bf 7339 fbe3 4b32 f0bf
000002d0: df87 bc17 214f f53e 808b f07f 602c 5dbf
000002e0: 9053 801a e24d d4bf 1414 6e71 8423 f0bf
000002f0: a0c9 84ab 88d7 103f e205 3e1e 9abb e2bf
00000300: 2656 69b7 5aef d53f aaa6 c3e6 43dc f03e
00000310: 59ac bf15 a337 34bf 3380 b3d0 d163 5ebf
00000320: 6a47 a4df a6c0 dfbf 4baf d8b5 e810 f0bf
00000330: 89a9 4860 5603 f03f df9e 0b85 656d f73e
00000340: 9756 2a67 bbbc 26bf 12e0 a40a 4075 e53f
00000350: 0394 ebb1 8dcd e5bf caaa 5f9e b0ec 013f
00000360: 4266 546b 8f02 f0bf 9745 04cd 46d9 cc3f
00000370: a8c0 5831 0f42 03bf e029 0bce b196 18bf
00000380: 37b1 b148 4ada 01bf 82d8 914c 8aa3 31bf
00000390: 9810 0d19 54b4 ffbe 0fda 3d99 b8ed da3f
000003a0: 4726 ae47 4ab2 eabf b5a1 ff39 ecd7 50bf
000003b0: edb9 2472 7c09 d3bf f2c4 b819 8716 f0bf
000003c0: e25e 6e04 2f11 003f b12f ec2c 0224 283f
000003d0: 0b01 55f4 421f e93f 0518 6b52 9700 f03f
000003e0: 1408 35a4 2e02 e1be 23f5 a866 261a f0bf
000003f0: 7fec 19f2 85f5 c43f d682 b8c9 c591 3dbf
00000400: 461f 4181 444b 47bf 63b0 3c3c f951 43bf
00000410: 6747 3110 1f8b eebf b9ee d4f2 0731 a83f
00000420: 8075 c1cb d438 65bf 2e52 eb92 5209 f0bf
00000430: d618 8895 f40b f0bf 17a5 27d2 832a 10bf
00000440: 0060 181a d352 50bf 7667 8aae 0700 f03f
00000450: b44a e94b 3508 f0bf 33fb 2985 81ab 003f
00000460: 088b 17c1 bf05 f0bf 09c0 2be9 2e01 f03f
00000470: 961b 7ecf 3a83 fb3e 7656 0a3a b32b 30bf
00000480: 6df2 3f80 f2a6 d5bf ab00 0467 fb84 4fbf
00000490: 223c 25b6 7506 f0bf 13d4 ca95 b502 f0bf
000004a0: fe2c a167 6f4f 033f eb5a dc4f f9e7 193f
000004b0: 945c 2157 6607 f0bf 40d9 f54f 594c 1d3f
000004c0: d09e 193a f907 f03f 1333 4a8c 02e1 e73f
000004d0: c86a 1d22 22a7 e9be e272 cb6a a109 f0bf
000004e0: 0685 0fad 6100 ce3f
