data/model/indel_model_w5_p7_500_hg38.pkl_448.npy (npy, 952 bytes, 1 tensors)

array f8 [109, 1, 1]
000000 8b eb df f1 98 46 d1 3e 0b dc 78 80 68 aa 28 bf
       4.118864834974372e-06 -0.0001881840291717288
000010 9b be 77 64 ea 51 f0 3f 6c f5 7a a7 01 fc 28 bf
       1.0199989246865815 -0.00019061584656824713
000020 1c 0e 31 c8 2a 88 23 bf fe d7 5e ee bd 20 28 bf
       -0.00014901659241860286 -0.00018408125396057734
000030 b8 1c 26 27 d7 d1 28 bf 6b c5 4d c3 30 4e 28 bf
       -0.00018935920122606863 -0.0001854357266455707
000040 48 71 7d b2 ed 60 c1 bf a4 c6 2e 0c df 89 cf bf
       -0.13577052321751126 -0.2463949975477152
000050 f0 31 c2 28 a5 6f 8f bf 19 b1 ca b6 05 27 f0 bf
       -0.015349664980271321 -1.00952693369897
000060 7b b1 eb 7b fb 58 f0 bf c0 7c b7 9c 08 83 84 3f
       -1.0217242088939134 0.010015551836600856
000070 39 c6 ed 19 2a 59 f0 3f 00 2e 8d 90 28 9c 79 3f
       1.021768666538618 0.0062524399334722425
000080 44 e7 6e e2 c1 16 f0 3f 7d 72 54 4c 8b 30 f0 3f
       1.0055559964225305 1.011851595080912
000090 e4 e7 61 6b 4b 06 68 3f fc 0d ea 6b 0a e0 a7 3f
       0.0029326890026455266 0.046631169961099034
0000a0 f1 06 7f e3 25 04 f0 bf 2b bc 77 cb 56 aa f1 3f
       -1.0010126959390926 1.1040866802175155
0000b0 bf 05 af 6d 27 66 5f 3f 48 36 8b df 39 71 6d bf
       0.001916445259425678 -0.0035940294586456513
0000c0 77 7a 57 52 0c a1 e6 bf cd a7 35 54 50 35 f0 bf
       -0.7071591957317896 -1.0130160607754874
0000d0 08 a0 4d 26 a2 19 71 3f 6f 81 5e 41 2f b7 f0 3f
       0.004174836537323763 1.044722800586978
0000e0 36 85 db a3 b7 f4 d5 3f 76 4f c4 91 44 e3 53 bf
       0.34306136132916565 -0.001213852846437794
0000f0 89 39 32 72 b0 2c 58 bf 46 d1 fb 5e 2a 80 60 bf
       -0.0014754984956969217 -0.0020142390784433665
000100 c3 dd 27 36 84 21 4a bf 49 e5 ae 2e be 4e f0 3f
       -0.000797452503603795 1.0192243407785375
000110 3d e9 ae c7 49 7d e4 bf d7 f1 47 3c 0c 37 73 bf
       -0.6402939701140792 -0.004691169543090421
000120 a1 d1 cb b7 42 f7 e5 3f c3 1e 68 cb 67 92 e6 bf
       0.6864331807869811 -0.7053717587268341
000130 0a 1a 77 43 c9 f0 55 3f 4d 05 1f 91 95 df 8c 3f
       0.00133914618150899 0.014098328105208191
000140 b8 6d fc cc 46 7d f0 3f ab 1f 05 c8 8b 34 f0 3f
       1.0305850989596888 1.0128286183625999
000150 74 f1 1b 01 09 09 1d bf 2a 6d 83 ed 04 30 e6 3f
       -0.00011076085527501005 0.6933617247517863
000160 02 dd 9d 35 d9 af ea bf d4 d7 c4 49 fb 2b 74 3f
       -0.8339658782196298 0.004924756616949428
000170 30 3e e5 e6 83 b2 7b 3f 74 eb 6d 37 1f 6d f0 3f
       0.006762042276320865 1.0266410985193177
000180 7a 1a db 8a 71 8d 74 3f 99 94 0b ad 1c 31 e8 3f
       0.005017703557035897 0.7559951190747994
000190 cb 6c 5b a5 72 5a f0 3f aa c1 9d 34 5b 47 f0 bf
       1.022081991125378 -1.0174209647485477
0001a0 7e 7b c5 4f 42 24 2a 3f 99 66 e3 8c 77 0e 57 3f
       0.00019944486110553753 0.0014072577937923934
0001b0 d1 20 3a 6c 7a 3d 78 bf 07 29 31 ab 79 73 48 3f
       -0.005918005193628243 0.0007461875997105968
0001c0 ab bd 63 ff 6c 20 9a bf 7f 04 a9 3c 2a a6 f0 bf
       -0.02551431950354092 -1.0405676240482362
0001d0 be 2e a8 b6 dc 05 f0 3f 78 3f 5a 04 e5 47 6a 3f
       1.0014311919248224 0.0032081101406404265
0001e0 e6 7e 5b a3 e7 85 f0 3f 3a fa b9 74 58 c3 62 3f
       1.0326916104458461 0.002290413632919622
0001f0 c9 55 8a fd 44 17 f0 3f e2 58 cd e4 57 03 f0 3f
       1.0056810287400018 1.0008162438949104
000200 63 2a f3 01 32 6b b5 bf 32 77 9a f3 24 31 c0 bf
       -0.08366692111591471 -0.12649976629921295
000210 d1 a9 52 46 48 68 f2 bf 01 68 6b b1 4d 3a f2 bf
       -1.1504595515240121 -1.139234250111713
000220 91 91 1a 0f 34 08 f0 3f 37 d4 85 76 de 3a 60 3f
       1.002002772330432 0.001981195924765557
000230 14 8c ef 65 d1 2e 61 3f a4 7b 55 5b 94 c9 73 3f
       0.0020975198562935924 0.004830913084645259
000240 1e 69 b4 f8 e6 bd 72 3f 5c d5 2e 18 f6 d4 e4 3f
       0.00457563613169956 0.6509962532351596
000250 75 9c d5 36 1d 9a ea 3f c1 7e bc a8 3b 93 f0 3f
       0.8313127585396517 1.0359455672514033
000260 af ea 00 db 3e e3 53 3f 22 87 ec 0c 44 85 f0 bf
       0.0012138475249360672 -1.0325356011239326
000270 0e 02 79 21 52 5c 55 3f c7 4a 82 16 a2 92 e5 bf
       0.0013037492807513903 -0.674149555170822
000280 5b 72 d6 b9 a4 2b e2 3f c8 a3 76 cc d9 bc 9a bf
       0.567827570881103 -0.026111033539254952
000290 cc a9 08 2f b7 53 f0 bf 86 7c f8 c0 3f 88 f0 bf
       -1.0204383694896135 -1.0332639253536242
0002a0 9c 4d 21 1e 40 2e 1e 3f 7e 91 b8 94 5f 0e f3 bf
       0.00011513010352475487 -1.1910091218388454
0002b0 d4 5e f9 30 03 e6 21 3f e3 f7 c1 47 7d d7 97 bf
       0.0001365546126972291 -0.023282964234105818
0002c0 1e d5 f7 b5 4e 0b f3 bf e6 eb 07 e2 c6 81 70 3f
       -1.190260611355661 0.004030014883478627
0002d0 20 d6 a4 99 76 44 81 3f 9c bc 42 62 e4 28 f0 3f
       0.008431364597167479 1.0099834287937375
0002e0 80 75 e8 5c c8 1c f0 3f 97 bd 8c 67 b7 04 f0 3f
       1.0070270184727121 1.0011514706528482
0002f0 6c 35 79 6b ef 5b 24 3f f9 da b3 79 de 79 60 bf
       0.00015532777409747332 -0.0020112366888683756
000300 e2 86 41 da 2d 50 50 bf 9e 0e 20 3c a9 39 f1 bf
       -0.0009956786898545557 -1.0765774105683827
000310 b3 67 9b cc 9d cd a8 bf 1e b2 da 74 2f c4 c0 bf
       -0.04844372866291682 -0.1309871025636235
000320 5c 3e 28 5c 96 3e f0 3f 47 58 25 6f 79 21 f6 bf
       1.0152801132097897 -1.3831724492679471
000330 ca 89 0a c7 60 6a 2e 3f 41 04 74 33 6b a6 5b 3f
       0.0002320521484949336 0.0016876265415819577
000340 37 40 72 38 49 8e e4 bf 7d 93 93 5f 6f b3 d9 3f
       -0.6423688986269614 0.4015768464435537
000350 d9 8d 02 eb e4 49 0e 3f 09 ea 80 b9 81 a4 f0 bf
       5.7771013758835684e-05 -1.0401627775414701
000360 95 ae 47 79 bd 4a 92 3f
       0.01786323597654745
