data/model/indel_model_w5_p7_500_hg38.pkl_1006.npy (npy, 1224 bytes, 1 tensors)

array f8 [143, 1, 1]
0	0xbe7cbdf486d2ae8e	-1.070723400660114e-07
1	0xbee4cadcf5938c5c	-9.914605174582234e-06
2	0x3f15ec94685951df	8.363395507988241e-05
3	0x3f61643968ecc8d5	0.002122985962523231
4	0xbff001698e6ff965	-1.000344807048884
5	0x3f7c0e67f6ad61c0	0.006849676234957192
6	0x3ff01a5f1e69d09b	1.0064383686085765
7	0x3ff01e21346641d3	1.007355885205574
8	0x3ee3df3a53e1e4d9	9.475700263760649e-06
9	0xbfefb0f2a1fdc4b5	-0.9903500713245622
10	0x3f57b22e052fc99a	0.0014462899605375058
11	0xbff0002bf8f763e4	-1.0000419354676007
12	0x3ff01e69e4216e41	1.0074252044058911
13	0xbee9006e6be59c8e	-1.1921732377030596e-05
14	0xbef19674a75b7967	-1.6772954459004336e-05
15	0x3f4ee51d037eca00	0.0009428397815923195
16	0x3ff005a074b598ba	1.0013737257918778
17	0x3ff0021b1354c420	1.000514102470568
18	0xbef1de3fb7fcf39a	-1.7040405054336365e-05
19	0x3ff00449285905d0	1.0010463310321605
20	0xbef2260c6763427f	-1.7307879226549028e-05
21	0xbef404f4491f9e0b	-1.909194231322461e-05
22	0xbfc81e241e1d4bb3	-0.18841983290130102
23	0xbfe13401a7f75735	-0.5375984459485382
24	0x3f1b4195777fbe4f	0.00010397410176187751
25	0x3ff007e90a5280f2	1.0019312289442124
26	0x3fbb5e544f134a94	0.10690810137320234
27	0x3f00cd140a2d83e1	3.2045530381059685e-05
28	0x3ee4d6382db229d7	9.935757978381358e-06
29	0xbe7980e4d1976bd9	-9.500790944893853e-08
30	0xbef04f0060897aa2	-1.555309248357318e-05
31	0xbfc7b492dbe8f2ba	-0.18519817102232655
32	0x3feea82066a4ea3f	0.9580232624787824
33	0x3f32489c1e2a2dd6	0.00027898608656392926
34	0x3fef2c0c8a905a2a	0.9741270738912295
35	0x3fa9efe0a485645e	0.05065824516595606
36	0x3f3be9b5d17d95a6	0.00042591751979722604
37	0x3ff00f6d3b9abf03	1.0037662819194686
38	0x3f2c93ce07a52400	0.0002180279732988677
39	0xbfa41be7192571b8	-0.03927538091622601
40	0x3ff005cf379148d7	1.0014183207136307
41	0x3f310b9ece4b49d4	0.00026009204002011327
42	0x3f78f3d0a0f80400	0.006091895061673291
43	0x3ff0349ca42c33ac	1.0128446972841898
44	0x3f66e99c38015e80	0.002796940912997148
45	0x3ff00023e5b3657c	1.0000342343031141
46	0x3ff016e64e7a6054	1.005590731196226
47	0xbeb156b6893b7673	-1.0334684121185807e-06
48	0x3f4860900be7816e	0.0007439330436760769
49	0x3fe35606275b9f41	0.6042509812077484
50	0x3ff00d04801503f8	1.0031781199652396
51	0xbf170df8b1e7b59a	-8.794622815574138e-05
52	0xbfe769a14e3804f8	-0.7316442992888872
53	0x3fce6a8f95845fbb	0.23762697983397438
54	0x3ee4aaab6a517234	9.854640049927322e-06
55	0x3ef44b74b9afbb76	1.9354581677729026e-05
56	0x3ef8b7d88ba4968d	2.3573062869838976e-05
57	0xbef1af19c3e8cff3	-1.6864764115179188e-05
58	0xbecb2823156e4952	-3.2373410862675647e-06
59	0xbff00d41ae8c7b81	-1.0032364672003669
60	0xbea510b8ab4d9f67	-6.277953930990306e-07
61	0x3fc64c1092c31942	0.17419631162756316
62	0xbfd6cad48f305fee	-0.3561297796563839
63	0xbf71511ae8202800	-0.00422773848004887
64	0xbf817419d30b95c0	-0.008522226098146457
65	0xbff0185407b5f51b	-1.0059395123674395
66	0xbff02e24bd8fa5ba	-1.0112655071956014
67	0x3ff00069afd9c9a9	1.0001007908982535
68	0x3f01edc8d8f2f832	3.419655978963188e-05
69	0x3f19dd2a62fcf7fb	9.866305549352521e-05
70	0xbf635d3ec2b45580	-0.00236379869387332
71	0xbff0139065dad99f	-1.0047763804155705
72	0x3ff0001b585a6416	1.0000260783474508
73	0x3f1b49f666c9d793	0.00010409895339499727
74	0x3fd82a9d961fe55b	0.3776010480938418
75	0xbfe363559887ce38	-0.6058757762061253
76	0x3ef3c1945746d120	1.8840951683877648e-05
77	0xbf6be17c156f15c0	-0.003403417922046542
78	0xbff03a0577d25493	-1.0141653709918372
79	0x3ff000988089c192	1.0001454373378675
80	0x3ef7868dc90a4399	2.2435761425191115e-05
81	0xbfdfd9ba9850b203	-0.49766411661656224
82	0x3fce178a9580c200	0.2350934247965739
83	0xbf266db545e45936	-0.00017111623578420506
84	0xbf33d1965a218bf3	-0.0003024093695158096
85	0xbff005c90557a00f	-1.001412411564164
86	0xbf2dab7ae80c2c8e	-0.00022636294672681963
87	0x3f35c512e279c0cd	0.0003321810822631943
88	0x3ff003094160c3c1	1.0007412484958282
89	0x3ff0068d8b9a828c	1.0015998318923804
90	0xbf34bd2960f16a84	-0.0003164506933381122
91	0xbfe770f8023fde10	-0.7325401348052214
92	0xbfbe28f9910f8007	-0.11781272689358967
93	0x3fb8f8c999ecdd54	0.0975461960596154
94	0xbef5395d3ab2a3fa	-2.0240858856244278e-05
95	0xbf1c20f862a75207	-0.00010730281852684024
96	0xbf3e3c188111e879	-0.00046134565588541
97	0x3f258aa984a15232	0.00016434974014835482
98	0xbf27d9a47e570f33	-0.00018196232774247422
99	0x3f79fd915653efb7	0.006345336650379999
100	0xbff01f506be8d7cb	-1.0076450553146852
101	0x3f57534a1aa7f974	0.0014236663506604604
102	0x3ff006459ee1d81c	1.0015312391601645
103	0x3ff00fa86f6166df	1.0038227415847627
104	0xbf5401be2702664f	-0.001221118636783553
105	0xbf72d3e41f6e56b0	-0.004596606354331165
106	0xbfef83844f2819d9	-0.9848043008831225
107	0xbff02296be4cb5f7	-1.0084445413189067
108	0xbf3bf9f6688a950f	-0.0004268862326547032
109	0xbfef2802b82cfc80	-0.9736341092283425
110	0x3fd6d234a85ae384	0.3565799373714571
111	0xbefb0e66ee2fb000	-2.580285844182295e-05
112	0x3ff0147059027265	1.0049899556098805
113	0xbf04056e1cd7e5e0	-3.8187430259694266e-05
114	0xbf650e8a8a297540	-0.002570410333005896
115	0xbff01546df8a4617	-1.0051945430790334
116	0x3ff0001c2f5b5fa1	1.0000268792991636
117	0xbefacca4ccb435f2	-2.555788959761845e-05
118	0x3fd4c38452d723cd	0.32443340387231673
119	0xbfcee173b411ccc5	-0.24125524799783285
120	0x3ee52fccdb15b455	1.0102615166396814e-05
121	0x3f31a7b2d1cd9b4b	0.0002693950244094147
122	0x3ff006c2529028ac	1.001650164138975
123	0x3f28472fd63a0800	0.00018522700257866953
124	0x3f4db947d43e8300	0.0009070969322132194
125	0x3ff00ab01dec730e	1.0026093644038983
126	0x3ff00196b4b925a7	1.0003878650189593
127	0x3ff00165cc8fc7b2	1.0003412237824532
128	0x3ecf9e8f8ad1b555	3.7693235613230993e-06
129	0xbf3250c76ee17936	-0.0002794730088505783
130	0xbf15486f6f916ad7	-8.118801260207795e-05
131	0xbfefa269abbd7493	-0.9885757784174011
132	0x3ff00114ad64efaa	1.0002638600553646
133	0xbf6b77855aa69a40	-0.003352890450702334
134	0xbff0170fd86cc6c2	-1.0056303457353555
135	0xbff0048a04322db4	-1.001108185187019
136	0x3ee6542845b720af	1.0647172692737924e-05
137	0x3efa23d76c8aad28	2.4929052218664347e-05
138	0x3fe76c23cc6353c1	0.7319506637528478
139	0xbfc062a7057e5eac	-0.12801063316577677
140	0xbf22a9d58ac07c8d	-0.00014239055360662883
141	0xbfe9dc0eb85bdf35	-0.8081124878653784
142	0x3fc9333586b896c9	0.19687527731109913
