data/model/indel_model_w5_p7_500_hg19.pkl_550.npy (npy, 1256 bytes, 1 tensors)

array f8 [147, 1, 1]
5.524978277051064e-07 -8.854333219145832e-05 -0.00010172409611605829 -7.943779816706175e-05 -9.162424637580343e-05 -0.00010185035053192945 -8.950836233930472e-05 -0.1372471890958012
1.060817171212433 -0.0014264411959939525 -0.781024880312839 1.020493852549357 0.0012191918713703573 -0.001272933137353587 -1.0197445510019756 -0.09063761027576554
0.002374079070535112 0.9237241417346159 0.39316854896118353 0.015663422212825313 -1.0003923713651073 0.031692094601444655 0.04027442538300574 1.03562316207772
1.0483840204307087 1.0147415905072956 -0.0009617977935805846 -0.0007108418053922511 -0.0009879683941351758 -0.0007626589719025369 -0.6518602025591661 1.0171110954622309
-0.01315467719469767 -1.0210663857444495 1.001791066475346 0.001829485258084558 0.0060840974109867 1.010392420601691 1.0047240664321213 0.0006138817858268031
-1.0042241687083897 1.0019488197597928 -0.003513183673495309 -0.0008143651453888845 -0.002055912529136089 -1.0023250846380332 -1.0054068311146798 0.004151824389599934
1.0029740945865404 1.0053670243818373 -0.006886706833628339 -0.016597760665522848 -1.0129590832494635 -1.0208271476453548 -0.003649688889663503 -1.012017853839971
0.029944617402998194 0.0005395555858442991 0.009189234712445551 1.0310089781392822 0.0022268657757602748 1.008675351255384 -0.0009600697574709549 -1.002918202324025
1.0009905519052187 0.0003272935213878267 0.009588331681288994 0.013625193833986471 1.011459944330184 1.0161778415347256 1.001516904891231 0.00015364905588967983
-0.010812610216352991 -1.0177234861426145 -1.0042281881728898 0.0002924624643990807 0.0007421103177894153 1.0114041528178548 0.15530693439449597 -0.003204798617525743
-0.9133500883518145 -1.012163353971378 9.100652992888002e-05 9.851111986491103e-05 0.0005195736200535448 0.0061156866177885984 0.0017037201110302047 0.001167819141364046
1.0006725140105621 1.0021033715359424 0.004383224959360998 1.0035798142315013 1.005226580152437 1.0627662123006227 0.0004408404285269694 0.004200762286543906
0.0010618457587555402 1.000950117572597 1.0071463514879844 1.0505808381572714 0.00037879551337817506 -0.0031688843647558005 0.2411421796141984 -1.0250306295810792
0.0004832572085440679 0.4990643805431292 -0.912709422812707 4.2524804741206095e-05 -0.005214098367311036 0.001800172265914267 1.0106011291173316 0.0012890103946296841
1.00200895939056 1.000377156248691 -0.026256910266986944 -0.008389548507588617 -1.0465533651809826 1.0009492046559099 -1.1307020557810137 6.048848922493866e-05
0.00015310146791620754 -0.000276233721119775 -0.2867640143978454 0.42053928440911087 0.0002917279174373008 -0.20284132691278012 0.23392757518990948 -0.00025907910835044646
-0.0008494111736890912 -0.17763241079741934 -1.1105069646698351 0.0005993353256956386 1.0235437789763426 1.0027020296999136 -0.003062501156874944 -0.011113053750861213
-0.005022842507112296 -0.0077051243601299335 -1.0088506311801635 -1.0056027682282709 1.0030331753835575 -1.0367785782873016 -0.00018730380187984802 -1.0068954892869324
0.00032507799291969786 1.0014719830866718 1.0002356319760322
00000000: 2539 5f92 eb89 a23e 00e6 39dd 0a36 17bf
00000010: 5cb8 04aa 96aa 1abf f713 14fb fad2 14bf
00000020: ef0a 1b91 cc04 18bf b8c9 cfb2 0fb3 1abf
00000030: 8275 b3f4 cd76 17bf d233 51de 5091 c1bf
00000040: 3948 166d 1bf9 f03f 2861 5592 ed5e 57bf
00000050: 68ca c9e3 27fe e8bf 1e7f a75c f153 f03f
00000060: b7f2 c34d a9f9 533f afb4 798c 11db 54bf
00000070: 373e 8da9 df50 f0bf 9f08 ecc3 0634 b7bf
00000080: 0c04 eafe cd72 633f b7d3 68ee 258f ed3f
00000090: e3a8 e66a ac29 d93f b510 9778 120a 903f
000000a0: 78e5 626e 9b01 f0bf 15bb b53b f239 a03f
000000b0: 3039 c577 d99e a43f a3a9 c197 e991 f03f
000000c0: da61 9652 2ec6 f03f f1ea 91ad 613c f03f
000000d0: 4a3a ce08 2584 4fbf 4ddf 4427 f94a 47bf
000000e0: 0584 4efc d62f 50bf 3f38 d1ab a5fd 48bf
000000f0: 19c7 71ed 09dc e4bf 548b b648 1646 f03f
00000100: cbad b9e2 d6f0 8abf ca13 ddb4 4956 f0bf
00000110: 34fc be11 5607 f03f b9f5 86d6 6af9 5d3f
00000120: 806d 7e76 a3eb 783f c5c4 293e 912a f03f
00000130: 0f48 ed8a 5913 f03f 0059 cc18 9d1d 443f
00000140: fe48 a75c 4d11 f0bf 4f25 527c fb07 f03f
00000150: 2bab 701f aec7 6cbf 3327 4ed5 63af 4abf
00000160: 4037 6fa2 8fd7 60bf 4bb1 2707 8609 f0bf
00000170: 2f00 2d79 2516 f0bf 0096 8ddf 8001 713f
00000180: 1cc0 6f90 2e0c f03f 3326 a3bb fb15 f03f
00000190: 708a 0a4a 3c35 7cbf 5824 fbdc 00ff 90bf
000001a0: a3e1 6b95 1435 f0bf 9a17 e0d8 4e55 f0bf
000001b0: 9565 7ecd f3e5 6dbf 5e5f 13a2 3931 f0bf
000001c0: af99 bf41 cda9 9e3f 71d0 3bcc 1eae 413f
000001d0: e892 8534 ced1 823f 7bd9 2f45 037f f03f
000001e0: 2b3c be75 133e 623f 60c5 dec3 8823 f03f
000001f0: 005f e81a a675 4fbf 7fb7 f8f4 f30b f0bf
00000200: 429b 40ab 0e04 f03f e72f 76f8 1273 353f
00000210: eb66 f417 0ca3 833f 205c 598f 86e7 8b3f
00000220: 3fcb 619f f02e f03f f9fb 44b2 4342 f03f
00000230: 3862 0e97 3606 f03f e652 1857 9b23 243f
00000240: e0ea 1bfa eb24 86bf 81a8 156c 9848 f0bf
00000250: 47c8 9e93 5111 f0bf e978 4bb8 b42a 333f
00000260: b041 c0c5 4551 483f a742 f61e b62e f03f
00000270: 117f 08fe 18e1 c33f d5cc 1428 f340 6abf
00000280: d3a1 e8f6 293a edbf 9144 7833 d231 f0bf
00000290: 1aff 7047 58db 173f abdd 0627 f8d2 193f
000002a0: 7905 5eda 7f06 413f 767b 4120 c30c 793f
000002b0: 006d 238a ebe9 5b3f 006d 4441 3022 533f
000002c0: 49e7 9a2e c102 f03f d454 7f8b 9d08 f03f
000002d0: 409b 9ffd 24f4 713f 05cd 10b5 a90e f03f
000002e0: b931 6d77 6815 f03f deff d124 1701 f13f
000002f0: 8cbe 2839 13e4 3c3f 2b3f 398a d134 713f
00000300: 9201 aa33 b465 513f 326d 3e45 e403 f03f
00000310: 69d3 1e7e 451d f03f 3709 5bda 2dcf f03f
00000320: 0a39 8257 22d3 383f d40c c4d6 a1f5 69bf
00000330: a987 9037 bfdd ce3f 352f 7784 8666 f0bf
00000340: b932 00e8 b5ab 3f3f d0ff 41ba abf0 df3f
00000350: 5f69 3764 ea34 edbf db3f 412a 954b 063f
00000360: 189f 73df 605b 75bf c7d8 9740 787e 5d3f
00000370: f9c0 ed16 6c2b f03f c40b 4e5f 801e 553f
00000380: 681a ee8b 3a08 f03f c90e 1c7a 8b01 f03f
00000390: bd17 906b 17e3 9abf 6613 bf23 8a2e 81bf
000003a0: 7c89 cfbd aebe f0bf fe44 2f50 e303 f03f
000003b0: 3b97 f109 5b17 f2bf aad1 fea9 a0b6 0f3f
000003c0: dd29 6898 3b11 243f f2e2 5acc 6e1a 32bf
000003d0: f089 e073 575a d2bf 9b1a 4e9a 1dea da3f
000003e0: 2e83 5edd 611e 333f ac0e af60 b4f6 c9bf
000003f0: 0060 89ba 56f1 cd3f d128 254c a0fa 30bf
00000400: 37f4 1d9b 60d5 4bbf a5d2 8aa9 a8bc c6bf
00000410: 72cb 73f3 a2c4 f1bf d306 c5cf 96a3 433f
00000420: 6ea4 0b71 6f60 f03f 6b1a 9348 110b f03f
00000430: 6cf7 01ca 8716 69bf 6d5f 59d3 70c2 86bf
00000440: a0eb d004 d592 74bf 80c4 3692 688f 7fbf
00000450: f27b 378f 4024 f0bf 7ceb a4ed f216 f0bf
00000460: e334 d183 6c0c f03f 54ff 6e22 a596 f0bf
00000470: 25e5 2f68 df8c 28bf fea2 cf71 3e1c f0bf
00000480: 0038 2659 e74d 353f f77a 737c 0706 f03f
00000490: 5f18 fa13 f700 f03f
