data/model/indel_model_w5_p7_500_hg19.pkl_733.npy (npy, 1352 bytes, 1 tensors)

array f8 [159, 1, 1]
9.133064422155083e-08 0.00012317061626197908 2.9314548117956988e-05 6.016450476173868e-05 -4.000403925257988e-05 -7.164874319790434e-05 -0.748846137233595 0.0013585288749909227
1.0222754799385798 -1.000327955231218 0.002315266068677998 0.0017243737876694494 1.0013244447779046 1.00296308088661 1.0058951690992095 0.0002952266880486729
0.0008883746947486082 0.0006827300952660408 -0.7014726301047632 1.002304792712202 0.0035617544880219842 1.0092922576855703 1.002532290017345 9.868060298833931e-05
0.00012898819805725177 -0.9477375058654444 1.0004677756800306 -1.0024387146575282 -0.0010768767543947865 -0.009115160299181482 -0.005721946915692018 -1.007752979834908
-1.0017823446980259 -1.019674414348467 0.0008144840796726713 0.00016625393053077905 -1.0003656591318748 1.0006034019194887 1.0113127123494654 0.00105451160015266
1.0417953349947158 0.0005471862172240191 1.4703992181708594e-05 -4.141641076124518e-05 -1.0007039447329837 0.0002995177157915209 1.0011982541877766 1.000375018150581
0.0018105568863562294 1.002649612981014 1.0009794610936447 0.003742079567477882 9.882022445584226e-05 -0.0008350090654954401 -0.8752188252489732 -1.0061873847728595
1.007627188198433 0.02013674661107706 1.0227195219213099 1.0183907947081683 -6.77326423312392e-06 -1.2653979947869587e-05 -7.085715689081525e-06 -1.7029461295937106e-05
-2.2247013591132186e-05 -1.6266627921198835e-05 -0.061042715239543376 0.12492926428199017 -0.0005591261697999554 -1.0118317243363482 -0.3944954054987427 0.00022964481666023356
0.006432991408518496 0.06704388701190693 1.0263828547230742 0.0001422737379016665 -0.9926859506965637 0.3669312110492711 0.00015869106958396405 7.994035826522216e-05
-0.0003570274050668612 0.5389075787624011 -0.8553733764847369 0.0001340275732704963 0.5736058879194392 -0.50104334983265 0.000536038227986269 0.002567405863455774
1.016139122416746 0.5424576762521588 0.00033445212675647083 1.004467022716073 0.692936469987128 -0.0008950741804426918 -0.002458339256541224 -0.0035069236344786713
-0.0006040863946467942 -1.0017511794072083 -1.0017455571806473 -0.007239142942833942 -0.9014211231138817 1.0048034618140538 0.004252600762258441 0.009623151885361614
1.0124340243471064 1.0070138369056394 0.000672233346856325 1.000259912805923 1.0016889419108905 0.00013779738769383837 -0.0015133468531180472 -1.0000694831990102
-1.0044249010690125 0.0002312583824567753 -0.00040650120089266023 -0.977199373222826 1.0018051891254949 0.00034463786394111934 1.0024526511621081 1.0006263010580374
0.0001892197577115794 -0.0005922352317160307 -0.0003111734171219693 -0.0005286843542363538 -0.0028574151110479897 -1.0028325449819824 -1.008595124149539 -0.0002640558591441224
-1.002089908134197 1.0012366275930236 1.0104550393561484 -0.005276598808283721 -1.0136096364242146 -0.0012014476220057468 -1.0024767277322162 1.000067718048528
0.000294875661894394 0.0029541756642375693 0.012440051946963238 1.015210658081156 1.0099962800760842 0.00024392529774452148 -0.254058758912979 1.0018969425947755
0.00023238558351035073 -9.951719345924873e-05 5.8974311854857814e-06 -0.5958537475964042 0.4913828357861315 -0.004189604629674948 -1.0235701035648042 1.0014492048394874
0.0005913456520807328 0.007818367037554286 1.016336493919175 -1.0004373598302607 0.0005119278346579465 0.8769393780252583 0.2809499855380493
00000000: 7e9f 48af 3184 783e 308e 8f89 eb24 203f
00000010: c990 4c68 10bd fe3e c9f2 84a4 248b 0f3f
00000020: e19d 8752 40f9 04bf 5ee9 0b09 44c8 12bf
00000030: 5cef a42c 8cf6 e7bf b734 ae45 1542 563f
00000040: 276c 9d88 3d5b f03f d4e1 cfe2 5701 f0bf
00000050: 9203 7d01 77f7 623f 552e 8b41 8c40 5c3f
00000060: 741a f0c7 6c05 f03f e50d f803 230c f03f
00000070: 96c4 6788 2518 f03f 43dd 56f8 1459 333f
00000080: ae59 5921 3a1c 4d3f 1e56 30b7 275f 463f
00000090: 9bd9 aaba 7672 e6bf df2a 15c0 7009 f03f
000000a0: 00a2 5b61 8a2d 6d3f 35d9 6da3 0f26 f03f
000000b0: 8def 6c4c 5f0a f03f c5be afd9 57de 193f
000000c0: 963a 382f 20e8 203f 654f 1c9b dd53 eebf
000000d0: 27f6 937f ea01 f03f 7b2c 7b2d fd09 f0bf
000000e0: 3de1 489c bfa4 51bf 08f0 0f1b f8aa 82bf
000000f0: 5520 f56d e56f 77bf 4f66 ad96 c11f f0bf
00000100: f302 83ec 4c07 f0bf 291d 631e 9650 f0bf
00000110: 5a88 1e3e 63b0 4a3f 8069 9063 8eca 253f
00000120: c834 e06b 7f01 f0bf 342b 78b6 7802 f03f
00000130: c21e 193d 562e f03f 8a85 7f35 f146 513f
00000140: bbd7 ce95 31ab f03f e9c2 3274 21ee 413f
00000150: 93cd 1c4c 25d6 ee3e 00af b309 d1b6 05bf
00000160: a3b3 b923 e202 f0bf e4d8 3ccb 12a1 333f
00000170: dec7 e875 e804 f03f 0e13 2b3c 8901 f03f
00000180: 001c 53a7 06aa 5d3f b39b 1152 da0a f03f
00000190: aad6 150a 0304 f03f 4628 90ab b5a7 6e3f
000001a0: 0000 6587 b6e7 193f 00c2 6750 905c 4bbf
000001b0: 4e36 e9e8 ca01 ecbf 88f4 73f1 5719 f0bf
000001c0: 9cf6 bdaf 3d1f f03f 30d5 9130 ba9e 943f
000001d0: df1f 3a25 0f5d f03f c21a 5d25 544b f03f
000001e0: e383 11b2 bc68 dcbe 5af5 e3c2 8d89 eabe
000001f0: da00 a4b2 3ab8 ddbe e0b3 5aab 4fdb f1be
00000200: 1821 0722 e353 f7be 4f7c b428 8a0e f1be
00000210: 5bcb 39a3 fd40 afbf 928c 6740 5dfb bf3f
00000220: 6061 8b4e 4a52 42bf 4847 5176 7630 f0bf
00000230: d984 42a8 693f d9bf 0053 5af4 9919 2e3f
00000240: 80c9 70fb 7a59 7a3f 5be4 1cc6 c929 b13f
00000250: 1f5f a36d 106c f03f b1d1 4c1a eaa5 223f
00000260: d617 ae53 15c4 efbf 99a6 d50b cd7b d73f
00000270: b6ab 76e8 c9cc 243f 95c7 c3e5 b4f4 143f
00000280: bd42 4e07 ed65 37bf dc3b 4b1b bb3e e13f
00000290: 90df bbfc 375f ebbf 21cc 8116 3891 213f
000002a0: 6a06 2dbc fa5a e23f c71a 2d10 8c08 e0bf
000002b0: 6b3a 4d54 9d90 413f 80e0 0287 3d08 653f
000002c0: 0075 af18 1b42 f03f 1ff3 5e33 d05b e13f
000002d0: 649b 4df2 2ceb 353f ca9d 4703 4c12 f03f
000002e0: e19c 991a 892c e63f 4535 8f2a 6d54 4dbf
000002f0: a3ba b2d6 8223 64bf dc9d 3a4a 8dba 6cbf
00000300: 1c37 8ca7 71cb 43bf c288 a43e 2c07 f0bf
00000310: 1d11 7059 2607 f0bf b274 0ca3 caa6 7dbf
00000320: a753 761c 71d8 ecbf 1562 76cb ac13 f03f
00000330: 9a46 26d3 2c6b 713f 207a 0e95 4db5 833f
00000340: 18db fe04 ee32 f03f 3311 828a ba1c f03f
00000350: 5541 b91e 1a07 463f 2005 d089 1001 f03f
00000360: 995a e4fb ea06 f03f 25d3 178c b60f 223f
00000370: 0023 77cf 6fcb 58bf f313 c1db 4800 f0bf
00000380: 3412 56d8 1f12 f0bf 6154 1061 be4f 2e3f
00000390: 801d 165d f5a3 3abf 533d b59e 3745 efbf
000003a0: 101d c4e0 6407 f03f d26f c65a 1096 363f
000003b0: dc79 88ca 0b0a f03f cffc 68b9 9002 f03f
000003c0: 2520 9e57 29cd 283f f63f d379 0768 43bf
000003d0: ae61 61a6 9f64 34bf a2fb 7301 ed52 41bf
000003e0: 1a5d 7f0e 6f68 67bf 36fe 8023 9a0b f0bf
000003f0: 8b09 12a4 3423 f0bf 74e7 8247 1f4e 31bf
00000400: 8868 716d 8f08 f0bf 211c b1b2 1005 f03f
00000410: 0ecf 41e7 d22a f03f 2b12 0d35 ea9c 75bf
00000420: a5a3 f5bc be37 f0bf 00c9 a38f 3caf 53bf
00000430: 83c6 8909 250a f0bf 45dc ec01 4700 f03f
00000440: 8a43 0053 3153 333f 9c4e aafb 5a33 683f
00000450: a096 2e82 2b7a 893f b225 f087 4d3e f03f
00000460: 9022 00dc f128 f03f db8e 5b5a c6f8 2f3f
00000470: 3cca 32ab 7f42 d0bf de82 a616 c507 f03f
00000480: b5ef 64f6 9075 2e3f ee01 7d5d 7c16 1abf
00000490: 6f96 658a 51bc d83e df04 e4e0 3b11 e3bf
000004a0: 5e19 61fe d072 df3f cdc9 e16d 1e29 71bf
000004b0: 3096 7f0b 8b60 f0bf bb40 f699 ef05 f03f
000004c0: 9caf 3f1e 9160 433f a017 e075 1303 803f
000004d0: 99d3 310e ea42 f03f 4dae e29a ca01 f0bf
000004e0: e7f0 64a7 5cc6 403f 982d a62b e30f ec3f
000004f0: 64a5 eca5 15fb d13f
