data/model/indel_model_w5_p7_500_hg19.pkl_154.npy (npy, 1368 bytes, 1 tensors)

array f8 [161, 1, 1]
00000000: 93ad 3c60 0905 07bf 4c8c 9be6 cac5 6abf
00000010: 626c 8950 339d 6ebf eb2f 1010 4cc4 71bf
00000020: a4ee 4a0c db06 72bf 0fc3 1e95 e43d 72bf
00000030: a5b5 3821 1a2c 72bf fb41 4c13 6da0 e5bf
00000040: 7923 5a19 5ee3 cb3f 66f5 92b4 4105 f2bf
00000050: 8994 4996 6881 9a3f 5580 7a68 9188 f13f
00000060: 30f8 5c25 4033 943f 1687 5a46 9bb2 f03f
00000070: 7d9c e308 5d3e f03f 13af 0959 b213 993f
00000080: 25af 2dc9 661b 56bf 4df1 82bb 9796 82bf
00000090: c391 be8b cd20 f0bf 7b9b 309c b23a f0bf
000000a0: 50af 612e 3f66 923f b91e 58a2 b355 f03f
000000b0: 86ef edef 3d40 f03f 8d1c 538f 8dc4 a93f
000000c0: 95ec dd0a a393 b23f 3be7 16ee cc8b f13f
000000d0: d0ee f86c 52dd f03f e0d7 9505 fe91 75bf
000000e0: d464 2b6a 8130 f03f 01ce fc50 265d f0bf
000000f0: ab38 2283 10f1 46bf 2a3c f468 b199 52bf
00000100: eafe 0e51 e157 70bf 2cdf be5d bbba 75bf
00000110: 645a 5ac9 3654 f53f 7e46 5a38 17df e8bf
00000120: ab60 6312 b036 9d3f c431 4c75 2723 f0bf
00000130: 8352 96aa 73eb 0140 d137 a5c5 d2f7 7f3f
00000140: 8de0 bc6f f910 4340 896b 6550 f0e8 723f
00000150: e456 1e0f 7d6f c8bf 4a30 b03a 5dd3 f63f
00000160: a207 1ce4 6766 c13f 5bbd 520a f741 d33f
00000170: 0362 90fc ebd5 f33f ae63 8969 f70b fb3f
00000180: 885b 6b63 f2b8 9dbf d733 9934 3ad7 f0bf
00000190: c4a7 1cdf 9121 f0bf dc5b 6726 0a59 703f
000001a0: 28a4 3cb5 bb93 f43f 4d1e 2920 f50e 6d3f
000001b0: 85a0 4dc5 cbba 79bf 1d93 2ecd 5480 80bf
000001c0: 8899 6ac9 7687 7ebf 7175 60a7 9c79 eabf
000001d0: f922 d5ef 0519 d73f 567c a081 b2f7 f1bf
000001e0: d62c 0ee6 af4b 983f f87f 9728 9e78 ad3f
000001f0: b2ae 44db 443e f13f f102 1c89 23b8 f03f
00000200: 20f0 8b96 9944 8f3f b023 8781 0b55 f03f
00000210: c234 18a3 f43a f03f 8e77 6bc3 bdc6 823f
00000220: 1b43 b912 982a 77bf 3da5 3ca6 f7d6 81bf
00000230: f127 b22e bf46 e8bf 2228 ed12 e876 f03f
00000240: 488c 5e7a b3bc 953f 3e7f d265 3e57 a9bf
00000250: eb40 e1c8 cb78 f13f f802 0d21 ac4e 903f
00000260: 0474 f8f9 10cc ac3f 9065 67cc 04b7 e93f
00000270: 0f3a 0768 c7c9 fc3f 986c 7bac 76a4 813f
00000280: 94d1 49f5 94bc f83f 47d6 be10 75a8 cb3f
00000290: a33b 8171 b674 6a3f d5b8 7592 3a9a 5d3f
000002a0: 6b77 e48b 8ebd 5e3f 8306 6bf2 be74 6e3f
000002b0: 9f65 75ae b7d8 733f a6d0 199d b05b 4a3f
000002c0: d648 83f2 0767 cf3f cb8b e6ea 1a8c e5bf
000002d0: 0adc e563 3a26 7b3f 97b0 52a8 2564 e93f
000002e0: b870 378c efda d73f 1330 cec0 4cb6 a8bf
000002f0: 76e4 c3b2 db4b b9bf 25fd b28b 4fa0 f13f
00000300: 3d13 84b7 89d8 f1bf 1a8c b63e deb1 623f
00000310: a859 cf14 e9f6 f3bf e40a 662a b514 c83f
00000320: 33c5 e209 35f1 71bf 524f ff87 bbea a0bf
00000330: 3025 849c f5ee afbf 2fe8 5cbe 3c16 f2bf
00000340: a672 6fcb 63ce d4bf adcd 2403 25cd 923f
00000350: 6ad5 465c 65da f03f 1efb f27e 8950 f03f
00000360: 97e7 669c 29e5 6d3f 9665 0009 85af 833f
00000370: 6992 ff40 0ad6 e53f ecbc 1486 6a1e c9bf
00000380: b7ae e6f8 8122 8fbf 14e4 578c 7937 fdbf
00000390: 6f59 20c6 7c08 c7bf affc d979 386e f9bf
000003a0: f7cb 1c2d 0016 793f 4a8e 37f4 ed2d 7d3f
000003b0: da67 775e e76e b6bf 8098 1464 a01a f03f
000003c0: e366 cd36 9c8d f3bf bec8 fa87 4983 7d3f
000003d0: aa68 8e3c e7b5 823f 3656 4ff6 7813 8b3f
000003e0: 81c6 4e5a b475 f03f a163 f74f 0338 f03f
000003f0: e3f5 2b29 ddc3 803f 83e7 7a03 1c9d f3bf
00000400: a28b ce38 c72d f03f 2c5b 2942 ba44 763f
00000410: 89ab d487 e0aa 9bbf e80d 2a60 ab2b f03f
00000420: c68c 887d e96a 0dc0 79c3 4fbe 5925 7b3f
00000430: da9c 50a4 111b c63f 8bc2 b910 9c24 f03f
00000440: c8f2 6e59 57ed 57bf c28c aaea 510c aebf
00000450: e89e 1527 9fb9 d3bf d879 3252 6f05 c0bf
00000460: 4e17 07d4 2527 f03f 52e1 886b a19d f5bf
00000470: 21ef 8ef4 a38f 08c0 c6cc cc1e 862c 833f
00000480: 402f 0512 7aee 813f 31eb 7108 f229 f03f
00000490: 2cf2 2966 8021 f03f 1ccb d180 2f40 f03f
000004a0: cca1 f0cb 9ddf 543f d18b 925a 5c4c 803f
000004b0: 585f 1e16 8e86 f2bf ab80 740d 179b 813f
000004c0: c292 289e b325 f03f 563d 5a6d 123e f03f
000004d0: 0195 d685 8b3c 96bf da94 28ef 30fb 823f
000004e0: 0393 7070 af3b f03f da69 d737 6525 f03f
000004f0: f714 2be0 346c b5bf 1672 3ae9 5179 febf
00000500: 56cb b9ba 2b06 04c0
-4.390654433302911e-05 -0.0032681429773773526 -0.0037370683897229176 -0.004337594146829086 -0.004401069313356185 -0.004453556919472814 -0.004436590260906402 -0.67583326119535
0.21787620771308605 -1.126283364646349 0.025884279415909126 1.0958417969886984 0.019726755409685548 1.043605112856715 1.0152254435759283 0.02448919933742306
-0.0013493064659213041 -0.009076295289894754 -1.0080085238233643 -1.0143304921309368 0.01796816559401232 1.02092326560698 1.0156840679401014 0.05032770514076743
0.07256526007943116 1.096630983387924 1.0540336853727474 -0.005266182205891895 1.0118421694990518 -1.02274161945104 -0.0007001238466431045 -0.0011352760810188303
-0.003990059035402041 -0.005305034541315295 1.3330600610112464 -0.7772327519071067 0.028528929827047616 -1.0085825521410792 2.23996670981643 0.007804702118233879
38.13261219713704 0.004616678930996162 -0.19090235937317523 1.426602582217145 0.13593767774733317 0.300901184159519 1.2397270074635578 1.6904214975859122
-0.02902582866485262 -1.0525457434298369 -1.0081957545576055 0.003991164825911189 1.286067684132158 0.003547171364775703 -0.006281658152922036 -0.008057272445350311
-0.007453407297964516 -0.8273452061727494 0.3609022943606273 -1.122972971301143 0.023726223389115862 0.0575608658361943 1.0777023854415515 1.044955764373466
0.015267562777346255 1.0207629260714661 1.0143934603577667 0.009168131376494217 -0.005655855212879836 -0.008710798988959762 -0.7586360847501493 1.0290299166977168
0.02122765001662355 -0.04949374192187726 1.0919912192221612 0.015925111310255397 0.056244402421931766 0.8035911552680535 1.7992624343493195 0.008614470614182232
1.5460404950691542 0.21607840840958856 0.0032294810626249545 0.0018067905419588044 0.0018762485556815488 0.003717778151753505 0.004845349794174863 0.0008043873187504505
0.24533175794073853 -0.6733526790525216 0.006628254019566357 0.7934749877508861 0.3727377766897564 -0.04826583722669411 -0.098813754218911 1.101638360690978
-1.1153657120314187 0.00228207976552276 -1.2477808773888714 0.18813194818729706 -0.0043804237194973615 -0.03304086718676892 -0.0623699906883054 -1.1304290233661154
-0.3250970350907586 0.01836068946540841 1.0533193211134297 1.019662376303763 0.003649312278153748 0.009612120949941166 0.682377936315402 -0.19624072596477704
-0.015202536972388143 -1.8260436517869083 -0.1799465148366823 -1.5894093284439739 0.006124497116434028 0.007123879916864315 -0.08762975746449744 1.0065006169693618
-1.2220728054730265 0.007205283385404991 0.00913601544907679 0.013220734612256906 1.028736450924413 1.013675033920869 0.008186080759965136 -1.2258567939702238
1.0111763209358533 0.005436637470288368 -0.027019031801653468 1.010661483422945 -3.677203160028145 0.0066274171449415215 0.17270107768238213 1.008937898001167
-0.0014603951474178468 -0.0586877440412308 -0.3082044488605633 -0.12516585839780592 1.0095575601894384 -1.3509840202878718 -3.070136938678744 0.009362266364041704
0.008755639719900565 1.0102405862696282 1.0081790915275048 1.015670302582925 0.0012740174277131476 0.007958146585513777 -1.1578503479012934 0.008596592043034276
1.0092045000139227 1.0151542922574968 -0.021715335887752655 0.009268171595133646 1.0145716087510557 1.0091297322566022 -0.08368235085352525 -1.9046191320877646
-2.503013094706527
