data/model/indel_model_w5_p7_500_hg19.pkl_448.npy (npy, 1384 bytes, 1 tensors)

array f8 [163, 1, 1]
0	0x3eb6c8212cb5c74d	1.3578984859566118e-06
1	0xbf244bf7986247af	-0.0001548518886847461
2	0x3f8052757c901278	0.007969777931074548
3	0x3f8dcb34d6a5b700	0.014547741699711292
4	0x3ff0422d278e425e	1.0161563439507044
5	0x3ff036c60fd02727	1.0133724801730268
6	0x3f56cdb113d36f80	0.0013918141624378044
7	0x3ff00cc5ac016c9c	1.003118202110989
8	0xbff00154c5dfea6b	-1.0003249864081691
9	0xbf24d23eb0f8619f	-0.00015885367655311692
10	0xbf14b11165437994	-7.893246339871755e-05
11	0xbf229becc3b2824a	-0.00014197602454137293
12	0xbf254205fd56d06e	-0.00016218493571573976
13	0xbf226c1e5f55d0ed	-0.00014055128819346428
14	0xbfc2b14e5c0bcc06	-0.14603595251500695
15	0x3ff05053c7372489	1.0196111471034632
16	0xbf7a1b9d666a37e0	-0.00637399181745299
17	0xbff0782e84699252	-1.0293412372931425
18	0xbfe9950c34310d1a	-0.7994442958228405
19	0x3f662858e38615f7	0.0027047859295545834
20	0xbf6cbe56609771a2	-0.0035087287003376525
21	0xbfe7a0e21a6b5ed3	-0.7383890644077503
22	0x3feae2595c9760ea	0.8401305015968579
23	0x3f77cdd842ca6ce2	0.0058115432445007015
24	0x3ff041ca43fa987a	1.0160620360780102
25	0x3ff0177e01e6e0db	1.0057354044238795
26	0x3f4f0e878689900d	0.0009477769609245193
27	0x3f94bb711fcaeee6	0.020246284070465935
28	0x3ff1ddd886dc0650	1.116661574168024
29	0xbf4a8f3141d9cc00	-0.0008105268968406909
30	0xbff004dcd732f1d1	-1.001187172528365
31	0xbff001f357d33b7f	-1.0004762106579788
32	0x3f46e2f54c2a35c2	0.0006984422437469817
33	0x3f68e38110bd8e60	0.003038169937939192
34	0x3ff2345f3ef70684	1.1377861461227505
35	0x3fd5799801670edd	0.33554649483651905
36	0xbf3a85ba63dbe5e3	-0.00040469933070105666
37	0xbfe2450662654b0a	-0.5709258958616783
38	0x3fe38ab6d6f13b76	0.6106828878490507
39	0xbf42661f0c8d8770	-0.0005614902121175835
40	0xbf43343e4adda1ea	-0.000586061874611463
41	0x3ff04cdce7746a32	1.018765358085727
42	0xbf43ab22379b0e74	-0.0006002347065181116
43	0xbf4c0529f380fb40	-0.0008551077689914269
44	0xbfd9473807143d25	-0.3949718541270662
45	0xbfebc00da6f7f7dd	-0.8671940098863576
46	0x3f35772f387659ed	0.0003275385174331947
47	0xbfcb8dd22dbb5bf5	-0.215265533761993
48	0x3fdcf6aecfc4e6a6	0.4525563267703582
49	0x3f855c723d61612b	0.010430233476811232
50	0xbf70b68027adea00	-0.004080296140154704
51	0xbff0202dafeec71c	-1.0078560707447144
52	0xbff0017faa6bc61d	-1.0003658921308507
53	0x3ff0a83ab761e9e1	1.0410716212633064
54	0x3f24f6ff60efcdee	0.0001599489919211628
55	0x3f2e137a533bdbba	0.00022946232058248893
56	0x3f38fd793e46f649	0.0003813191417768353
57	0x3f44584aa9b8c99c	0.0006208767476379331
58	0xbf3f25b3c2571508	-0.0004752696862307536
59	0x3ee5c99d7134920a	1.0389117540096134e-05
60	0xbfd8c7f05af3aebc	-0.38720330125827807
61	0x3fd2940fa56a762e	0.2902869334592165
62	0xbfb26dd717c5d9d4	-0.07198852854148835
63	0xbfea3fa645ce9dcd	-0.8202697146816093
64	0xbff4970de91f394d	-1.2868785005881194
65	0x3f4ad32a7852c0e8	0.0008186299679860095
66	0x3f6489af085f89f3	0.0025070589644979823
67	0x3fd1cda940807daf	0.2781775598432103
68	0x3ff019bfe68abb66	1.006286526255019
69	0x3f42a74522a51a52	0.0005692565512525705
70	0xbff5be0ceb3849a2	-1.3588990391041098
71	0x3fce3e1727f902b9	0.23626985027114758
72	0xbf11771bf42a4604	-6.662471882126075e-05
73	0xbff368cf14b08821	-1.2130881126581772
74	0x3ef2ea19728249d8	1.8038225932112895e-05
75	0xbfab7da154016fa0	-0.053692857269850736
76	0xbff484d3d3467cce	-1.282428574842743
77	0x3ff00a5186d2b02b	1.002519156124445
78	0x3f1fefb2b9d00fcd	0.00012182739597227308
79	0xbff06ea4a3dd52f4	-1.0270124817808979
80	0x3fb881f72f60f22e	0.09573311716753416
81	0xbf36484423dbf1c5	-0.00034000075889631067
82	0xbf6914c0241ca193	-0.003061652446280935
83	0xbf921a88b53d41ae	-0.017679344236343368
84	0xbfa36d27c51bd753	-0.03794216424095844
85	0x3ff15c4dbd0b70c1	1.08503507466871
86	0xbfed0b2e8b9cd60c	-0.907614967995586
87	0x3f75a5eb12ad6fbc	0.005285185102220365
88	0x3ff09b5b83545bb9	1.0379290704783968
89	0x3ff014feddcdda66	1.0051258720610803
90	0xbf5a8216e51a2aae	-0.001617929800348843
91	0x3f8dbc0e3325ce39	0.014518843589690454
92	0x3ff0d51a1462807d	1.052026824596424
93	0x3ff020d7d3aec9f4	1.0080183285577933
94	0xbf6507b51be9926a	-0.002567151764468802
95	0xbff226e1ebd778b6	-1.134492799049935
96	0xbfc413f445d190b1	-0.1568589535628511
97	0x3f3d423278600987	0.0004464505403804154
98	0xbf6faeb45c3b7787	-0.003867485300232457
99	0x3f3848da7d18271a	0.00037055334277679016
100	0xbfe60fc70b63f781	-0.6894259664984334
101	0x3fe77e2ca106fe8b	0.7341521401467203
102	0xbfa12b5620f50de7	-0.03353375580129719
103	0xbff2cdd3a9c8e213	-1.175250685903056
104	0xbfe4e4b8f67a5520	-0.6529202283879023
105	0x3f455c552c0cdecd	0.0006518760566000759
106	0x3f526439bbfbae3e	0.0011225284396755432
107	0xbff0983ad00f0170	-1.037165463189094
108	0x3fde7d84d7aa47b1	0.47641106663752014
109	0xbf51980cf527770c	-0.0010738493480099724
110	0xbfe90b593b089bd0	-0.78263532190328
111	0x3fd0bfac39078f32	0.261698775952243
112	0xbf500e13755c6214	-0.000979918482192703
113	0xbf84301e53fc9649	-0.009857403696126659
114	0xbf8eee63db0b856c	-0.015103130457137147
115	0x3f9ea551d26b0aab	0.029927519290832077
116	0x3f99868ab4038740	0.024927298772019713
117	0x3ff075f45f240d0b	1.0287975040853918
118	0x3ff05b8d9f81b6d4	1.0223518591623604
119	0x3ff0aa58b52a7d21	1.041588504485681
120	0xbf92d6f0a426fd74	-0.018398056048451975
121	0xbf9c5c8f3377c52c	-0.027696836010311518
122	0xbfe446441a067649	-0.6335773952775493
123	0xbff12e90ce57b891	-1.073868566537872
124	0xbf6fb14721c62b10	-0.003868712358046429
125	0xbfe95da02dec4382	-0.7926789185458889
126	0x3ff029132eb871e4	1.0100280594843918
127	0xbf500e8067b80cd9	-0.0009800199467243002
128	0xbf927c75807f80e5	-0.018052898376368715
129	0xbfa63397ec725a40	-0.04336237679779176
130	0xbff0991f29d94e13	-1.0373832354279144
131	0xbff110fc8a78d16e	-1.06664709177593
132	0x3f4e72c8398cba00	0.000929210439698569
133	0x3ff0049c22457085	1.0011254633637077
134	0x3ff001aa929769ee	1.0004068113545332
135	0x3f75bfed05ac17de	0.005309987895776273
136	0x3f6912d0e7cbbc2b	0.003060729998075403
137	0x3ff02546a7ca80eb	1.0091005853974433
138	0x3ff013a0e0e7505e	1.0047920975967126
139	0x3ff0c496023e2daf	1.047994622002857
140	0x3f441a36527ebb1d	0.0006134762997954433
141	0xbf78d5b18af285bc	-0.006063169027727463
142	0xbf96a7dd59d8eba3	-0.022124727829787038
143	0xbf8e42da60d17948	-0.014775949554117887
144	0xbff05b40446ca6c8	-1.0222780869320776
145	0x3ff001fb8bb2b10a	1.0004840332940739
146	0xbff0de7ce0c60067	-1.0543183117115633
147	0x3f54469df0a6905d	0.0012375395186632534
148	0x3f67b9762698d0e6	0.002896052134724869
149	0x3ff00a11c0f12b15	1.0024583374785767
150	0x3ff0169aa7a18e0e	1.0055185840691396
151	0xbff03fd7f38306ea	-1.0155868065052638
152	0x3f4d764420460ae6	0.0008991081854648724
153	0x3f71c95aec9f5955	0.004342417882034451
154	0x3f6c44c9def81832	0.0034507696907466684
155	0x3ff043c1872e8916	1.0165419846094372
156	0x3ff015c830f0cf26	1.0053178703064503
157	0x3ff0aeab9ed379bc	1.0426441387313465
158	0x3f3e6062fdd07953	0.0004635087660193233
159	0xbff061cc04bb1666	-1.0238762078091894
160	0x3f418aee012d97e0	0.0005353605396123361
161	0xbfdf018af24edbe6	-0.48446916258711636
162	0x3fd2e0b75cfdbb88	0.29496559220472607
