data/model/indel_model_w5_p7_500_hg38.pkl_31.npy (npy, 1224 bytes, 1 tensors)

array f8 [143, 1, 1]
-6.415631986428903e-05 -0.1865579837486109 -0.19320288340189165 -0.19434782661379157 -0.19545627424197654 0.010354840632996088 -0.14215928237368555 -1.3014380114254178
1.3279209140159136 0.31538308664635933 1.3511580003125903 1.8334728195670902 -0.19569298990125863 -0.1962838635649115 -1.2273191133241428 -1.0665777819758422
-0.11791799207199895 -0.866510214920933 3.4686675095580974 -0.09097188948046718 -0.15904900625501966 -0.19164630867276256 1.912261444033576 -1.2169416348072877
0.16040455743885992 1.795087472349332 -1.2786004246114984 0.031566920713727395 -0.05002251170555881 -0.6539376274741806 1.3966607085194538 0.22194226302539521
1.388868225673354 -1.2759022800365714 0.10898579499233074 -0.08347175253351133 -1.2474463050002373 0.031418784362493436 1.2474463050002373 -0.2189964732380405
-1.3116446158216188 -1.250616838225003 0.20521456875525185 1.5046822912937237 1.2474463050002376 0.08708793565178147 -0.0024052323781158266 -0.12423284534325847
-0.15355967577714705 -0.21432594758784954 -1.2625425448988656 -1.554995909699486 0.05304564837924145 1.3542876214637 -0.4692646804340862 1.2474463050002376
0.0560720218451527 0.15125576659366183 -0.25764745618161755 -1.3939968215113243 -1.303197605996259 0.1785159814453471 -1.316323741552181 1.1041124963269442
-0.11314352437441924 -0.1734621849701201 1.245569045132658 -1.2543151480490147 0.09797178771053362 1.2469133194231217 -1.2534011173251478 0.1427391493846587
0.15030354314670621 0.06920712087123528 -0.10074649578818076 1.3021520473690884 -1.2682524711099423 0.16992037518792621 1.3117309307963356 0.43448609317245934
0.19742713987434474 0.2137423134615153 0.2632246093414539 1.2922813692526667 0.041267621254284056 0.7497480973673518 -2.100182293539818 -0.2997778856951234
-1.4844648403289675 -1.375892836373319 0.18936145180209615 0.1821807110104451 0.1823794351250289 0.16902163333380588 0.18308053719909656 0.18602506361321866
1.0614487247045385 1.2455307931500503 -0.006311401757285498 -1.260147654845643 0.9421115563097646 0.09520108667136566 0.13767278437719316 0.935472933682479
-0.5803066507792507 -0.0090905265840554 0.3638087252859586 -0.7387076670715074 0.1934200672177747 0.18627360189285563 0.19987645404426316 1.2529954542415345
1.1590865254882987 0.16068237751710476 0.9793481792106498 -4.865363373839104 0.2001534420614848 0.20403470182156813 1.2550508046829099 1.2734833758039152
0.1941186563163762 -1.8574178960186745 1.2153969334390775 -3.04449299925289 0.19766044136146063 -1.8552344731706125 0.19783763937472373 0.19805088071723748
0.01900862485344318 -2.484995811850028 0.22453977809096748 1.2974642904319729 1.2740274850033448 0.1982439181898666 0.19366501413015944 1.1866991277547843
-4.905623045038691 0.20214192733450784 1.2439537073138414 1.2691345944583405 -0.06615514265672173 -1.2474463050002373 1.2472858294655578
00000000: 9091 be2e 75d1 10bf 9905 81cb 21e1 c7bf
00000010: 851d da40 dfba c8bf cc6d adbb 63e0 c8bf
00000020: f869 d510 b604 c9bf 07f9 fd2e eb34 853f
00000030: 5b14 4f7e 4632 c2bf bf7e 0daa b0d2 f4bf
00000040: e5f6 1500 2a3f f53f b3e3 b68a 3c2f d43f
00000050: 2e24 f1d9 579e f53f 3854 6298 e755 fd3f
00000060: b557 d7c7 770c c9bf 8635 5f63 d41f c9bf
00000070: 01ba d75d 19a3 f3bf 959f 43dd b310 f1bf
00000080: 3929 8f9f df2f bebf e587 57a1 73ba ebbf
00000090: 95ff 51c0 d4bf 0b40 df86 2c0a ef49 b7bf
000000a0: 52ce 29c4 b75b c4bf 8406 13c2 dd87 c8bf
000000b0: 436a b874 9f98 fe3f 8f35 aaca 9778 f3bf
000000c0: 1725 2af4 2288 c43f e931 33a4 adb8 fc3f
000000d0: c6ba 05b8 2575 f4bf 16a7 3318 8a29 a03f
000000e0: 5ea5 adf7 8c9c a9bf 9403 749a 0eed e4bf
000000f0: 1930 2be6 b858 f63f b4ab a5a4 9a68 cc3f
00000100: 9787 7be3 cd38 f63f ed61 5a82 186a f4bf
00000110: a07a 3839 7ee6 bb3f be6f 459f 675e b5bf
00000120: 7bdf b741 8af5 f3bf ed4b a276 1f16 a03f
00000130: 7bdf b741 8af5 f33f a094 3f91 1308 ccbf
00000140: 78da 8e10 7ffc f4bf 8f0d 40cd 8602 f4bf
00000150: eab7 bb92 7844 ca3f 56a1 ffbc 2d13 f83f
00000160: 7cdf b741 8af5 f33f 4c24 801b 654b b63f
00000170: c7bb e74c 23b4 63bf 359c d647 b9cd bfbf
00000180: 2d3e b9ec d7a7 c3bf 9d79 c95b 086f cbbf
00000190: 4963 c2cf 5f33 f4bf 432b 1964 43e1 f8bf
000001a0: 45c9 f799 cc28 ab3f 0b07 397f 29ab f53f
000001b0: 7677 e8b9 6e08 debf 7cdf b741 8af5 f33f
000001c0: 804f 17d8 78b5 ac3f b1f3 6c55 595c c33f
000001d0: 24a6 8cc1 4b7d d0bf c8e7 719c cf4d f6bf
000001e0: baab 9fbb e5d9 f4bf 7d80 0f97 9cd9 c63f
000001f0: bba3 ce7b a90f f5bf 2e44 6ddd 71aa f13f
00000200: 323b f158 f9f6 bcbf 070a c545 0234 c6bf
00000210: 4f13 9cce d9ed f33f 77f7 bbc2 ac11 f4bf
00000220: c9bb 25d8 ad14 b93f dfe7 7d61 5bf3 f33f
00000230: e3e6 7a54 ee0d f4bf d4a4 3bc5 4645 c23f
00000240: 1bde 2481 253d c33f 81d2 cad0 8eb7 b13f
00000250: 62ca 98b8 85ca b9bf 33ea 9d62 9dd5 f43f
00000260: 6fd0 671a c34a f4bf bb97 2d6b f3bf c53f
00000270: 1bc0 8e92 d9fc f43f 7a85 2fc2 9ece db3f
00000280: 4e33 8de2 4a45 c93f e056 0b7b e85b cb3f
00000290: 51ee 2708 acd8 d03f 90b9 a23a 2fad f43f
000002a0: 8e7b 5797 0721 a53f c0ca cdb8 effd e73f
000002b0: 6322 d35f 2ccd 00c0 24f9 c795 8f2f d3bf
000002c0: 7d65 5434 5ec0 f7bf a662 f034 a803 f6bf
000002d0: 8379 4efd fe3c c83f e53d e091 b251 c73f
000002e0: 0e98 a996 3558 c73f 061b be39 80a2 c53f
000002f0: 0cf1 e6db 2e6f c73f 8340 3a56 abcf c73f
00000300: 58ca 6fa8 b1fb f03f b5d8 6bb2 b1ed f33f
00000310: 7638 3b02 fcd9 79bf 1217 5b96 9029 f4bf
00000320: 5c17 7122 c725 ee3f cb13 cc31 195f b83f
00000330: ce82 3905 439f c13f 9ab3 0eef 64ef ed3f
00000340: 0cf1 d740 df91 e2bf be34 0ed3 0d9e 82bf
00000350: a991 4664 a448 d73f f20c ec42 7ea3 e7bf
00000360: 5394 8b1f fdc1 c83f c674 1e3a d0d7 c73f
00000370: bd26 ae38 8d95 c93f 9c10 20f6 440c f43f
00000380: e14d 0350 9e8b f23f f35f 3d7a 3d91 c43f
00000390: a06b 23fe d156 ef3f 422e f7d0 2176 13c0
000003a0: 09ff eac3 a09e c93f c44f c921 cf1d ca3f
000003b0: c2e7 0e27 b014 f43f 6a3d b11a 3060 f43f
000003c0: ea0d 3650 e1d8 c83f 417c e6d3 fbb7 fdbf
000003d0: f178 0c0e 4472 f33f 7489 4525 1f5b 08c0
000003e0: 8f21 aef5 ef4c c93f 85df ca57 0aaf fdbf
000003f0: c321 8467 be52 c93f aaf0 cf33 bb59 c93f
00000400: 1092 5938 ff76 933f 23be f47b 45e1 03c0
00000410: 78a1 c62d b8bd cc3f 7621 72ea 69c2 f43f
00000420: 42b6 e4a4 6a62 f43f f3d0 a084 0e60 c93f
00000430: bfc1 08e3 03ca c83f 5b60 7e39 b8fc f23f
00000440: ccc7 c3a5 5b9f 13c0 dbab 8663 c9df c93f
00000450: 1b6a aa00 3ce7 f33f 94bb 9613 604e f43f
00000460: e03e 2c1e 8bef b0bf 7bdf b741 8af5 f3bf
00000470: d219 65fc e1f4 f33f
