data/model/snv_model_w5_p7_500_hg19.pkl_1282.npy (npy, 1736 bytes, 1 tensors)

array f8 [207, 1, 1]
0	0x3ee5b7388df99f4d	1.0354855873375953e-05
1	0xbf24857c58c4d146	-0.00015656607536985496
2	0xbf4b7a2c5d288224	-0.0008385388012506806
3	0xbf44f5a59428a8ab	-0.0006396349420516775
4	0xbf528197415666f2	-0.001129529676609339
5	0xbf510c89e011950e	-0.0010405870855490526
6	0xbf47d9a8d878520c	-0.0007278513375604269
7	0xbfa53ef09978642d	-0.041495817884602416
8	0x3fa92388862bf12e	0.04909922254407416
9	0xbf91194c863a7406	-0.016698070233008643
10	0xbfca4cf66e6326e1	-0.2054737128258273
11	0xbff1ce27ec46e52a	-1.1128310422485108
12	0xbfb13b61c8ef1269	-0.06731234698879408
13	0xbfa7adafa8c83a49	-0.04624699530915117
14	0x3fd0cac47012a144	0.2623759359799076
15	0xbff003e77e7b2edc	-1.0009531918212167
16	0xc005fb8fc7493e35	-2.7478328294016827
17	0x3f763d66416f6da7	0.005429648815119681
18	0x3f907dd24a0e6cc0	0.01610497071270056
19	0x3f93a37aaa9398e3	0.0191783110248246
20	0xbfe071cbff1a4fc8	-0.5138912184215707
21	0x3fe8c68c086dd69a	0.7742366947774884
22	0xbf988ec1eed0ddda	-0.02398207683674323
23	0xbffad345bbcc2f94	-1.676580175003413
24	0xbfd5c8f58ff6e24c	-0.3403905778791667
25	0x3f67b99c100f1e50	0.002896122751255871
26	0xbf096116cddd2637	-4.84070858264959e-05
27	0xbfdfa84d265c2f69	-0.49464730020621644
28	0x3fb50f975cadf915	0.0822691537159453
29	0x3f89dfa135d15dc6	0.0126335711048985
30	0x3ff85b3f8670b6e4	1.5222773791860442
31	0x3fe49061f983cbd7	0.6426248429619318
32	0xbf9427742df72c08	-0.019681754403603008
33	0xbf8cdef05228ffc2	-0.014097096927002787
34	0xbf9c0a26a24bc966	-0.027382472663654588
35	0xbf86bf75f66203bb	-0.011107369977482287
36	0xbfefc2734b75b2b9	-0.9924866174529462
37	0x3fb54d2c3eb4b5c9	0.0832088139620374
38	0xbfb0c83629f9ec05	-0.06555498623667695
39	0xbfe96cf758290e47	-0.7945515367395694
40	0xc001392059dd9beb	-2.1528937359575955
41	0x3fa9b80546d32eb5	0.050232090850469126
42	0x3fd16a8eb1bbde90	0.27212874752829297
43	0x4001d5abf0fd54ec	2.229331858378478
44	0xbff01d9caf99149b	-1.007229505471776
45	0x3fa36837ed8b6ad6	0.03790449881281226
46	0x3ff483f567e9da58	1.282216459190428
47	0x3ff01ed92e326bb2	1.0075313381737314
48	0xbfb8e00f3c70103c	-0.09716887689143133
49	0xbf892c101c31e846	-0.012291074619714359
50	0xbff39efec85c4687	-1.226317198427212
51	0x3f7c0d871931b632	0.006848838546927237
52	0xbff02cd868d2090d	-1.0109485716389515
53	0x3ff0330f1ebf1d06	1.0124655915295206
54	0xbfce8b7d4da58d73	-0.23863188067762628
55	0xbfd78abdd1152226	-0.3678431073972511
56	0xbff74d4eb9a284b4	-1.4563739062653385
57	0xc002b82efb7c4fbd	-2.3399333617507794
58	0x3f9443fadb1f01e0	0.019790572761623326
59	0x3ff015d098538b2d	1.005325884842658
60	0x3ff0916908777c0c	1.0355005579692742
61	0x3f45e4f8505778e2	0.0006681644887825101
62	0x3fb753f1f1723170	0.09112465042762152
63	0x400520a5375d32be	2.640940125018772
64	0x3fb16d225dde6d58	0.06807150642128101
65	0x3f88e3d341fb75f5	0.012153292132491148
66	0x3ff672ccc21e3532	1.403027303956446
67	0xbf74a57294440f78	-0.005040595602853297
68	0xbff128afe6831a86	-1.0724333767299483
69	0x3ff1e89573fded82	1.1192831545766642
70	0x3fccfe29cae5ca03	0.22650644690618557
71	0x3fdb4701de6de56b	0.4262089416657406
72	0x3ffa6f251fd9e3fb	1.652135013979431
73	0x3fff52861972b94a	1.9576474184101067
74	0x3f9b727ec77e4985	0.026803952146630578
75	0xbfe4920bf8fb4688	-0.6428279745980072
76	0x3ff2a1bfca21aa3e	1.1644895454179642
77	0x3f421d28bf0141c5	0.0005527924495343719
78	0xbfb86abbf89ab6a9	-0.09537863559190875
79	0xbf9443e7cfbcb03b	-0.019790288976921238
80	0xbfa74f1d0278021f	-0.04552546172272209
81	0xbfee572d2d10da15	-0.9481416588012644
82	0xbff263b75f4f364c	-1.1493447993301684
83	0x3f95e635522f0963	0.02138598741636012
84	0xbff024d7054bc2a4	-1.0089941222069365
85	0x3ff0b5ac074af893	1.0443535122754255
86	0xbfd2aea04dfc948d	-0.2919083367908762
87	0xbfdda4b5bc935ac7	-0.4631780950125343
88	0xc001a64257251709	-2.206181221789738
89	0xbff9ca7dc5b75395	-1.6119363520894912
90	0xbfc6bfceb33020cd	-0.17772849797643744
91	0xbff13f1d21aac2b9	-1.07790864134965
92	0xbff4cb8a6bac7ca9	-1.2996925550467415
93	0x3f451faffa833ed9	0.0006446465750062593
94	0x3fa46614ec491dea	0.0398413217959009
95	0xbfa6bbf308e8aa40	-0.044402689778810345
96	0x3fc87405a009505c	0.19104070963169562
97	0xc00394c82ad26d61	-2.447647413775187
98	0x3fb4592a7399aefd	0.07948556253694146
99	0x3fe7c2c38b648ff6	0.7425248835102127
100	0x3ff9e60fdd6cb666	1.618667473735877
101	0x3f3ff54722951b94	0.00048764216133572705
102	0xbfacf59e48b58db8	-0.05656141889155769
103	0xbfe7b20e74a55a63	-0.7404854086151541
104	0xc01acc8b5d4ff5f8	-6.699750383382245
105	0x3f43e182d6bdcc80	0.0006067170011036099
106	0x3fca253564bb8736	0.20426051539021167
107	0x3f6a876d0ed044a7	0.003238404277461432
108	0x3f50ecf6743c5126	0.0010330588128840217
109	0x3f91b432f6ba9742	0.017288967427382625
110	0x3fabe855a8b84f5a	0.05450694737024149
111	0x3fc414b3f03d27d9	0.15688180189528003
112	0x3fd019782af20631	0.2515545291317692
113	0x3fcdc5c56a0dca16	0.23259799650584573
114	0x3ff4eb29aac83351	1.3074127837346234
115	0x3ff4c7eea1a19c25	1.2988115609857769
116	0x3ff684b0fb27ea11	1.4073953448083822
117	0x3fb5fc0d47fff8e4	0.08587725646791317
118	0x3fc0857c35865c90	0.1290736447669798
119	0x3ff2e04c08891712	1.179760011045293
120	0x3ff1e483b5c751ce	1.1182896710134744
121	0x3fa5da4449e67150	0.04268086816884653
122	0x3ff09f86d4fcdde9	1.0389469451746385
123	0x3ff0cdf489063b5a	1.0502820351136593
124	0x3fa491bf72208194	0.04017446773673608
125	0x3f6c8fad9aab2e43	0.003486479826596585
126	0xbf784fa4bc77344c	-0.0059353289611410835
127	0xbfe3338434072ac1	-0.6000386253520774
128	0x3ff1c71b83dc9e3a	1.1111102248049876
129	0x3ff445d816df7c62	1.2670517819858778
130	0x3fb2490d8838f2e7	0.07142719817870678
131	0x3ff734a37866e6f4	1.4503512099458336
132	0x3fafdcd32d6a1d8f	0.06223163537384401
133	0x3ff150a9a00e3a80	1.0821930172129726
134	0x3fec4064078b17ee	0.8828601977663746
135	0x3f702a62e4ea2bb3	0.003946672730886047
136	0x3f8ae4930cb025f0	0.013131283592900694
137	0x3ff181bdbdb6a0e1	1.0941750918082607
138	0x3f88c9f95ae52058	0.012103984915157337
139	0x3f99843ebe958db7	0.024918537504516638
140	0x3ff0931aa42a893f	1.0359140789738175
141	0x3ff0597263422a57	1.021837604263643
142	0x3f7fc06d7cb2de98	0.007751872714997575
143	0x3ff02de95b159eb7	1.011208873556752
144	0x3ff0856652fc4b84	1.0325682870504531
145	0xbf6defccc1f8012c	-0.0036543845342295236
146	0xbff84bf80884c6c1	-1.5185470898399418
147	0x3f31f11fb64671f4	0.0002737715169816295
148	0xbfa9845d4b4a5a32	-0.049837985459067716
149	0x3fc93362a6a8aea6	0.19688065660135584
150	0xc001b68189ab01b0	-2.2141142611801214
151	0x3f7c210406abab36	0.0068674237506723326
152	0x3ff062313270bf17	1.0239726991966955
153	0x3ff01f45d4d89f4d	1.0076349558166442
154	0x3f405c29c526fa53	0.0004992679553693181
155	0xbf6df6102eb5778e	-0.0036573711455920093
156	0xbf5edafd22951781	-0.0018832656881655199
157	0xbf7b1c8d7e35989a	-0.0066190268583793625
158	0x3f30043791c2c4eb	0.0002443919818331935
159	0xbfaa6c9258569246	-0.05160958603236003
160	0x3ff0c7531c00c501	1.0486632436625885
161	0xbf93960fbd17bcdf	-0.019127126613906916
162	0xbfd128a7d0b615aa	-0.2681064165302255
163	0xbfe61b5f3944ebdb	-0.6908413046397713
164	0x3f7e9309f08f065a	0.007464445902714079
165	0x3ffa1e9d7cd3159e	1.6324744106253557
166	0x3f7c06f35dd02f1f	0.006842566156602974
167	0x3fe804593bbc803b	0.7505308310246684
168	0x3fad6a8d56a198e6	0.05745355303297277
169	0xbfacf9532b9cb0ce	-0.05658969790815292
170	0xbfd69da903903ddc	-0.3533728155898339
171	0xc001ecaf75372d7c	-2.2405690343345537
172	0xbff2e43d19d5c480	-1.180722332876286
173	0xbfa7d2aea9f46097	-0.04652925324097728
174	0xbf9e63eee29b95d6	-0.029678089695968378
175	0x3fedc0fcf43d2337	0.9298081178941179
176	0xbfe0b9874a5591fc	-0.522647519287204
177	0xbfc5fa923844c066	-0.17170932528961486
178	0xbfd4aeb281070102	-0.3231626758606724
179	0xbffa6e8c8ecb5e11	-1.651989515104905
180	0x3f61b9f720dfe945	0.002163870499314021
181	0x3f997322207a22fc	0.024853261215443276
182	0x3fa4aead88ee9470	0.04039518639118789
183	0xbfa2b4a591cfeab2	-0.03653447537359024
184	0xbfd06252ae898d30	-0.2560011581865238
185	0xc00acb0685a6a03e	-3.3491335336184695
186	0x3fad03b0586f7e22	0.05666876868758332
187	0xbfbdc7f3cf10bbc5	-0.11633228116328016
188	0x3fe5d3babe6123e8	0.6820958822582925
189	0xbf9d0aa667ec633d	-0.02836093911455183
190	0xbf77b7b1a742b4e7	-0.005790418585246849
191	0xbfeb5b1a5abefb56	-0.8548709652312521
192	0x3fcf8e16d08466ce	0.24652371579650495
193	0xbfbc0fb76514096a	-0.10961481302004975
194	0xbfe5fca4c657f8b8	-0.6870902894877622
195	0xbff7abba994f2359	-1.4794260014188778
196	0x3ee7abcf9c64d7a9	1.1287277527398934e-05
197	0xbfd76d25f22dd3be	-0.3660368790654579
198	0xbff8dcba5c14c2f4	-1.5538886639516791
199	0xbff9a01ceb81cd7b	-1.6015900802129568
200	0x3f27db88b6b80588	0.00018201869839632964
201	0x3f8b6b81f09abe90	0.01338864818111965
202	0xbfee0f4b4a6d21de	-0.9393669561041482
203	0x3fdf579fdbd6d221	0.48972317188898457
204	0xbf4d49fdfa318aad	-0.0008938303111672617
205	0xbfef869fbc44bdc1	-0.9851835896606006
206	0x3f5d546d449bf94c	0.0017901484556542445
