data/model/snv_model_w5_p7_500_hg19.pkl_508.npy (npy, 1416 bytes, 1 tensors)

array f8 [167, 1, 1]
00000000: 262c 1a80 fa8b dd3e b039 5001 4ed6 41bf
00000010: 5df8 bed6 9d57 33bf d5ac 6c92 0c1a 41bf
00000020: d1f7 70bb cc13 3bbf 5d24 0f7d c552 513f
00000030: 48c2 b5cc 7c5f 4fbf a680 7450 fc83 b2bf
00000040: e3a3 066e d6bd ba3f b3d9 4014 7279 753f
00000050: 4254 677e 5aff c63f 5136 b181 f7ac c6bf
00000060: 6b41 c115 b8fc 74bf e835 107f 31a5 7abf
00000070: 9e8b 18b1 e073 babf d653 d654 1605 ebbf
00000080: 3fbd 771b 7d4c 8a3f c6b6 6cdb b453 eb3f
00000090: 47e9 de49 d33c 963f f206 e662 a1f3 c0bf
000000a0: b1d4 6ba8 9268 eabf 917c 220c cbdc 04c0
000000b0: 5ae3 88c2 86bf edbf 97da d1ba e74c 25c0
000000c0: 8613 1126 bf58 35c0 0f3f 2d8c 3e3d a9bf
000000d0: dc14 630f 2980 e0bf a6cc fdd6 6fd7 fbbf
000000e0: 298e 920f e066 11c0 00c6 7b7d 1b48 8d3f
000000f0: 35b1 708f 6262 ec3f 2362 e14a 132e f5bf
00000100: 0f17 f5ae 44e6 a53f 988f b9fd c464 dabf
00000110: 38fe 1ab4 d6fc f2bf 0410 a06f 8b0e 08c0
00000120: cc59 daba 6588 a83f 0847 06c3 2ce4 bb3f
00000130: af47 0dba 4e7d 0740 99d9 4c58 2a03 ba3f
00000140: f4b2 8157 4c9b d9bf 8bed 3b93 14b9 f13f
00000150: 4f2f dcb9 194a 603f 8871 099e 4d8f 01c0
00000160: 3b48 8e1f 7d86 7e3f eed3 2549 3fea f13f
00000170: f0ac 0490 8010 cbbf de32 f66d 445f a2bf
00000180: 3ea3 3938 3f2d cbbf beb8 664a 37d1 bdbf
00000190: 06a1 93eb ffe9 d4bf 4920 1871 ea10 f9bf
000001a0: e9a2 4ee9 4e98 f6bf 9894 ddfc e8bd a7bf
000001b0: 330e 4790 6a05 55bf 80a6 44a4 b8c8 f0bf
000001c0: 137b 54bf 1dfe f03f 79df d8d5 e6f8 f5bf
000001d0: aeaf 1461 f30f e3bf 93c8 4204 7c01 03c0
000001e0: c69e 3574 afa2 04c0 36c7 e3c6 4eec 9cbf
000001f0: 7c5f 9f95 2432 81bf 0102 fd4c c336 913f
00000200: 3a86 2b81 e872 b73f 1894 c1e0 bc49 f23f
00000210: de02 f8db bdab babf c607 2cc9 24dd 98bf
00000220: a16b 1ead b288 ecbf 40bb 00e0 62ff d93f
00000230: 753e 2e6e e51a b5bf f98c adfa 263b d1bf
00000240: f41f 63f5 fbd9 f4bf 7874 57c0 9fe4 07c0
00000250: 1e22 254e df8d 9bbf 5e85 4201 1ce1 f83f
00000260: ebb6 0a5f 939c e3bf 328c 4fbd b718 bebf
00000270: 06ab e4f5 402a dabf 7de8 6f2f df77 e3bf
00000280: 4c36 dc06 c7ab f03f 6e69 81e3 30a5 10c0
00000290: f5e3 cb7d c4e8 83bf e063 c427 478a f03f
000002a0: 92e8 cd98 51aa f1bf eca9 340f a385 a3bf
000002b0: 55e9 3f71 7f85 c6bf 6879 f84a e649 06c0
000002c0: c76a 86f7 747a f0bf ef80 954f 783c b03f
000002d0: bc89 a240 27c8 f43f 107d a350 7c17 e13f
000002e0: 06db 9bba 3251 563f a773 dca5 b5c9 c13f
000002f0: 8a00 e897 355c e13f f205 f7f6 64a4 dc3f
00000300: 7cd2 a09a ddc9 f93f 81d4 ce1a 0683 0040
00000310: b9a8 71c5 a7e6 0d40 995c d502 56d4 ad3f
00000320: 296a 2e54 2be0 933f ba3f 7aad eb77 d2bf
00000330: 52e7 addd c2ff f9bf 085e b935 bbd0 f3bf
00000340: 7309 df16 ff1b b23f 61c4 8e13 c1fc a53f
00000350: 651d 151c 7455 f13f 1778 e15b ad56 f03f
00000360: 5dea 2e74 49a9 f93f 5f51 c438 f31b 0440
00000370: 2773 90f1 636a 533f 7e30 7746 ed0d 8a3f
00000380: a484 c134 84f7 a13f 8cc5 5248 59d4 b23f
00000390: 91cf 3379 d07b 9c3f 31da 6082 d658 f83f
000003a0: 70e1 acf6 a1fe a63f b148 ff25 185b c23f
000003b0: 1f4f 01cd 5550 f83f cbc9 8ccc edb5 e13f
000003c0: cf40 3eb3 36e1 933f a88f 7e67 4b2b 983f
000003d0: 82fe 94df a5c7 e43f b8b0 e543 d1e9 a1bf
000003e0: 2bd2 76e3 4cd5 c3bf 5871 c6f1 b966 01c0
000003f0: 45f6 5e77 5a50 f03f 3090 b92f 41ed 783f
00000400: a794 6413 ccc3 6c3f 81a5 0aac 5a77 aebf
00000410: 06c9 4b52 ec12 f1bf 6088 3833 971e e73f
00000420: a149 80f8 a550 793f bc44 1344 ed94 c9bf
00000430: f630 10d1 8178 c63f 71b0 3345 50b2 b93f
00000440: 6712 56af 5ddb af3f dc92 14c4 c083 f03f
00000450: caa8 ba1d 607f 03c0 9352 bb7d 32f7 cc3f
00000460: 9afd d846 13f8 ff3f ce42 71c0 36da f03f
00000470: e057 7af9 a7e2 4bbf 48a8 ccad 8358 aabf
00000480: 8c10 9e67 c107 12c0 3cac 706c 6fbe a7bf
00000490: c97c 7614 8a78 b7bf d9f6 8e35 d2db 85bf
000004a0: 9b7c 263b 4fb1 f4bf fffb 29e5 7540 8a3f
000004b0: 9a61 49dd b719 04c0 cc43 cc5d 0654 e43f
000004c0: d901 5f2d f535 2ebf e022 3824 3d1f 583f
000004d0: 342d b725 9a9f 71bf b02b a578 8ff6 843f
000004e0: 369d a078 586a d0bf d2ad e9c1 0e68 713f
000004f0: 14d7 a340 d3ba c03f efd9 e94d 726c 783f
00000500: 87e6 31e6 6d6c 90bf 3c84 28fc 1c04 85bf
00000510: a3cf 3fe2 6aaf ffbf 2361 c0af bf06 c3bf
00000520: 5314 5663 5723 b0bf a6f4 d776 3ba9 cbbf
00000530: 4e0f a4d8 8b4f fcbf
7.044503946960904e-06 -0.0005443459400583019 -0.00029513934600434115 -0.0005219041239334041 -0.0004131674608663901 0.0010573319052460596 -0.0009574279187472634 -0.07232644047008083
0.10445919214420445 0.005242772695103803 0.17966777011921137 -0.17715352852467217 -0.005123824197724817 -0.006505196900446354 -0.10333065341596501 -0.8443710000016107
0.012841203118084564 0.8539680753362624 0.021716405280792796 -0.13243501023321574 -0.8252652444340552 -2.60780915718312 -0.9296296882158501 -10.650205457798888
-21.346666697663316 -0.04929538212911499 -0.5156445789840762 -1.7400968931295124 -4.35046409923556 0.014297690169288835 0.887009887844704 -1.3237488675132532
0.04277243266782992 -0.41240048196618195 -1.1867281947487651 -3.007101890632841 0.04791562944335545 0.10895042191830495 2.9361853156378497 0.10161080032125937
-0.40010365052766805 1.1076856376010678 0.001988458868145949 -2.1949722620613024 0.007452477228882921 1.119689260228593 -0.21144110710279262 -0.0358830818396194
-0.2123183273827411 -0.11647363249241757 -0.3267822075417971 -1.566629831098924 -1.412184630733629 -0.046370774142624416 -0.0012830296192171242 -1.0490042130208224
1.0620400880649796 -1.3732670167355236 -0.5956971069440351 -2.3757248242264466 -2.579436214338645 -0.02824519242216824 -0.008396421257131463 0.0168104663600861
0.09159711030545106 1.143002393678449 -0.10418306942302588 -0.024281096247257293 -0.8916867619731087 0.40621253848341965 -0.08244165363270801 -0.2692353675867732
-1.303218802016997 -2.986632826489366 -0.026908387322040032 1.5549583481991571 -0.6128632408415035 -0.1175646626648337 -0.40882896435748284 -0.6083827902323403
1.0419378536202144 -4.161319308065101 -0.009721312607767965 1.033759265270639 -1.104081723110117 -0.038128944021383976 -0.17594903020637767 -2.7860837800100633
-1.029896704573433 0.06342269843071667 1.2988655590821585 0.5341168951962647 0.0013621325874148562 0.13896818731964553 0.5425060240668398 0.44753383748692876
1.6117836036839028 2.0639764875764404 3.7376246857939717 0.05826061997020666 0.01940982533742833 -0.2885693735233833 -1.6249416980121691 -1.2384597872350032
0.07073969181423027 0.0429439865469099 1.0833626839610926 1.0211614216891627 1.6038298166664824 2.5136475024138885 0.0011850334178753004 0.012721875870646434
0.03509152549737252 0.07355268493372175 0.02781606426010758 1.5216889470008363 0.04491144310162809 0.14340497832615065 1.5196130760204551 0.553458117972974
0.019413809480796126 0.023602655593677163 0.6493710867725471 -0.0349870105154379 -0.15494690996787716 -2.1751593483624383 1.019617525379901 0.0060856386513457456
0.003511332116561922 -0.059504350186510464 -1.0671199049652969 0.7224842071921209 0.006180427859379029 -0.19985738586414026 0.17555258472601282 0.10037709893703252
0.06222050443014809 1.0321662578000348 -2.437195045718089 0.2262938608097512 1.9980652587399619 1.053274871566987 -0.0008509941280461196 -0.05145656105590085
-4.507573718092441 -0.046374780642814944 -0.09168303489285558 -0.010673181781267459 -1.2932884512481795 0.012818261199980084 -2.5125577247637922 0.6352569419851704
-0.00023048990141029296 0.0014722916683941809 -0.004302599084847803 0.01023590170793462 -0.2564908197404806 0.00424962772977318 0.1307014527916911 0.00596279764305628
-0.0160386249303657 -0.010261751599559436 -1.98032654169672 -0.14864345628371564 -0.06303926634980543 -0.21610205939206145 -1.769420477155069
