data/model/snv_model_w5_p7_500_hg38.pkl_1423.npy (npy, 1288 bytes, 1 tensors)

array f8 [151, 1, 1]
0	0x3ed7bf8ab1b66c9e	5.662014497610739e-06
1	0xbf09eac1b8a93eb4	-4.9432789712808815e-05
2	0xbefdf92acce7e1b2	-2.858477528808337e-05
3	0xbf0a1ee45e58500d	-4.982122827015831e-05
4	0xbf010add40393d2c	-3.250587181168949e-05
5	0x3f26196d743fc39b	0.000168604479881232
6	0xbf25396e48b9c38f	-0.00016192885628954184
7	0xbf678af6c87e11ca	-0.0028738803848133753
8	0xc000f58fdd326609	-2.1199033051495957
9	0x3f622e7f423ce90d	0.002219437172155675
10	0x3fe845748af90cfc	0.7584784235299646
11	0x3faa4bd04b6798b6	0.051359662251159774
12	0xbf4f45c4f3a012a4	-0.000954362075618127
13	0x3f11ce387c14fba9	6.792278056354122e-05
14	0xbfca50fe06744617	-0.2055966884150144
15	0x3f908ee6f178da0d	0.016170128334318124
16	0xbf82f59f5f39330b	-0.009257550328720684
17	0x3fd9dc21eb203b15	0.4040608211661703
18	0xbfcac1a74227d416	-0.2090348313355725
19	0xbf9d1b93bea9a76a	-0.02842551089489779
20	0xbfb5e72bcf0d4c9b	-0.08555864148120167
21	0xbfa69f0f32790053	-0.04418227664109566
22	0xbff32eafbd5d50d0	-1.1988980671931593
23	0xbfda867c05aa42d9	-0.4144582801173278
24	0xbfd2b758370852b3	-0.2924404656817316
25	0xbff7b569111dd133	-1.4817896526920549
26	0xbff59d31f58347a0	-1.3508777227729993
27	0x3f8860ff52084835	0.011903757754257874
28	0x3f909b179700b086	0.016216629592392916
29	0x3ff04843449a0661	1.017642276740297
30	0x3ff0b8d825930173	1.0451280086272987
31	0x3f705ef9d2d48aab	0.003996826051010298
32	0x3ff005f6c99265f2	1.0014560579205605
33	0x3ff0184f1e89425f	1.0059348290270902
34	0x3fa89b4cd69cffda	0.048059846113119156
35	0x3ff9ce7352862151	1.6129029487220417
36	0x3fa01be5d9d79950	0.03146284374433839
37	0x3ff5dfbaddfde2df	1.3671215697815382
38	0x3f9370e1fc640ff0	0.01898530104610069
39	0x3f6837c62eebebe6	0.0029562826888400616
40	0xbff0930c4880657e	-1.0359003860561127
41	0x3ff041966808692f	1.0160125793250463
42	0x3fb43f8322372d48	0.07909411988582804
43	0x3ff02590150b15a8	1.0091706106189609
44	0x3ff2f4fdb26c374b	1.1848122567784738
45	0xbfa2d54df3e2d829	-0.036783634206060185
46	0xbf6f00208b4fce86	-0.0037842403057711275
47	0xbfab48e40e6491c6	-0.05329048801130258
48	0xbff527a05cf65f06	-1.322174418577505
49	0xbf9613f7cf6bf09b	-0.02156054690839025
50	0xbf8985ead93c2a60	-0.01246245837639498
51	0xbff04e4ce9d7217a	-1.0191163191212511
52	0xbff01bd81e959a8e	-1.0067979044630735
53	0xbfa45afe4a83d3b8	-0.03975672397238078
54	0xbff0888a5b598666	-1.0333350723598413
55	0xbff0cb26a9cde912	-1.049597419069475
56	0x3f93c8465a4af786	0.01931867529014355
57	0x3f90c6ae7fc9abeb	0.016382910298869218
58	0x3f8a74fb75a0f92f	0.012918438460584795
59	0x3ff0144ecd2ff3f2	1.0049579634789976
60	0x3ff051a4a87acc7d	1.0199324208486182
61	0x3f9dc8b6a75b5975	0.02908597370591211
62	0x3ff085c214aba5d3	1.0326557929459923
63	0x3ff0754895078efb	1.0286336728540266
64	0x3ff107644b11f186	1.0643046314645246
65	0xbfc74b26ffab2737	-0.18198096736733202
66	0xbfa1febb78d9b368	-0.03514657831406148
67	0xbf864b323e4edf40	-0.010885612989894988
68	0xbff04a80e65c1795	-1.0181893347193853
69	0x3ff00c9dedb91ff5	1.0030802999553974
70	0xbff1ef90b2488dfe	-1.1209876026340448
71	0xc011570577834de9	-4.3349817918674285
72	0x3f6712c11c1ff0f5	0.0028165599514960956
73	0x3fa0768a0480c6c8	0.03215438179939906
74	0x3f9403f0303e7f79	0.01954627317866151
75	0x3f83238d50434b2f	0.009345153819969447
76	0x3ff1870f67945152	1.0954736753529528
77	0x3f7bff416781e29b	0.00683522747578338
78	0xbf90db94945764e2	-0.01646263270763349
79	0xbff0cbd29a315692	-1.049761392894116
80	0xbff01b7c0f501a67	-1.0067101095352429
81	0x3f8bea463eb6dd33	0.013630436695946635
82	0x3ff03efce840ff3d	1.0153779098909148
83	0x3ff0911cf865229a	1.0354280188495637
84	0x3fb9e54f1c49539e	0.10115522804819796
85	0x3ff9caf457a9bccd	1.6120494293534648
86	0x3f81083421fbc7ab	0.008316428458304012
87	0x3f86b961216ec800	0.01109577067640899
88	0x3ff03519a648cb31	1.0129639144403877
89	0x3ff026d73ded9479	1.0094826144279792
90	0x3ff00b53b3697c61	1.0027653702052464
91	0x3fc77b584644c6db	0.1834516852482498
92	0x3fd291b9785445f4	0.29014431715867706
93	0x3ff659096ede3b8e	1.396737511709691
94	0x3ff6bc305ad45cf9	1.4209445522336053
95	0xbff07e642b00dd59	-1.0308572463817056
96	0x3f592d7ac67520f5	0.0015367220856479767
97	0xbf7486c806c86937	-0.005011350015161667
98	0xbf4c298b2beff05d	-0.0008594445752119307
99	0xbf9e4c56c9325336	-0.029588085203232604
100	0xbfa852347e8ee2b4	-0.04750217480563404
101	0xbff3a4292754e1a1	-1.2275783096684807
102	0xbfe25b4151aed770	-0.57363954499918
103	0x3f92503fd9fd9b67	0.017884252243131196
104	0xbfe18121f7529299	-0.5470132666128676
105	0x3ff28c7ecc1dfdb9	1.159300610859516
106	0x3f7632d4a97dc5c4	0.0054195696937866
107	0x3fc93d2c83e0b1f8	0.19717937888471204
108	0x3ff5a5172ddae7aa	1.3528053084578269
109	0x3ff27768b00ddff6	1.1541525723569044
110	0x3f71778981ab1e78	0.0042643901203472875
111	0xbfe91a18eb934faf	-0.7844357110102375
112	0x3fc5e6644e0846e8	0.17109350023434122
113	0xbfb14e11869a5761	-0.06759748016551505
114	0xbfa072f5523c4ac8	-0.032127062119021554
115	0xbf936e3a278d945d	-0.01897517076885823
116	0xbff471819a3e6f97	-1.2777114892150843
117	0xbfc33092651734e1	-0.14991979538027692
118	0xbff5e237fe58783f	-1.367729180848542
119	0xbfc36f7bea50a70c	-0.15183972302593707
120	0x3f9220714e983a6b	0.01770188371852514
121	0x3ff136faed045098	1.0759228952856912
122	0xbff122a67b1c8a3a	-1.070959549812541
123	0xbfd03a6761996e3b	-0.2535646870726144
124	0xbff482820f979fab	-1.2818623169969026
125	0xbff70ee32845460e	-1.4411346028395005
126	0x3f7f996f30d7624b	0.007714685763368377
127	0x3fb67461c8a170a0	0.08771334789475072
128	0x3fa7ee82baf358a6	0.04674156696425884
129	0x3f821100a5e34500	0.008821492254727392
130	0x3ff0422cbbd69bb3	1.016155942672168
131	0x3ff015cb7d724015	1.0053210163350788
132	0x3fba86f34a9591e0	0.10362167902855601
133	0x3ff1c7408d7ec985	1.1111455466421785
134	0x3ff1ebe4a2014f0f	1.1200910881352149
135	0x3ff69dfd973a156b	1.4135719210911144
136	0x3f7b44d3867fb4aa	0.006657434721984471
137	0xbfb3a7ea43f4f0ef	-0.07678093108274074
138	0xbf7bc94e5ad073a0	-0.006783777306762412
139	0xbff1a2c708889118	-1.1022405942285953
140	0x3ff06d2a1c2f3cba	1.0266514874418093
141	0xbfcbbf4a8042622d	-0.21677523863469741
142	0xbff362535088f90d	-1.211505236234703
143	0xbff59770ea914e60	-1.3494729197308502
144	0x3f7fd89645b8306b	0.00777491283544061
145	0x3fa0bb3e0814c664	0.03267854546210172
146	0x3ff161eeee69651c	1.0864095032650942
147	0xbff2be8ff8807950	-1.171524019918781
148	0x3f76eed67cd79618	0.005598867266120709
149	0xbff401efbde4d826	-1.2504727761966108
150	0x3fdc8533aeb9b18c	0.44562999785446133
