data/model/snv_model_w5_p7_500_hg19.pkl_1114.npy (npy, 1336 bytes, 1 tensors)

array f8 [157, 1, 1]
00000000: 182c e3ff fc8c c73e 6271 a92c 63ab 22bf
00000010: 8ae4 7670 967e 20bf 9682 af15 1fdf 063f
00000020: d22e 9191 b239 3dbf e9ce 7cfb 6036 4bbf
00000030: 8091 13d4 df03 44bf 04bb d6a0 3f98 a3bf
00000040: 4c8b 8686 5c7c 923f a35c 2d93 cac5 93bf
00000050: 3434 c618 2004 e8bf ad2f 27ac 089d 733f
00000060: 5724 5f5b a292 753f 6526 2740 ba11 71bf
00000070: 658f 6b62 452b d9bf d3ea 15ef 5ec9 d13f
00000080: d43d c89c 7618 823f 748f 726b dfa3 cf3f
00000090: 2507 a4df 10e3 d33f ffa2 8bf0 902b 543f
000000a0: 8b2c 5940 3bc6 66bf 5119 1e57 0b24 413f
000000b0: cc76 558f 3ddc c03f e21e 0cf0 755c c4bf
000000c0: d304 aeda 6499 90bf 933d 4e12 ac6d f4bf
000000d0: ed85 c84a 6ced cabf 893b 09ca fe95 6b3f
000000e0: b617 72c7 cdb2 553f 2850 110a 103d c0bf
000000f0: 9117 4ea7 0582 af3f fb23 af3a bb49 933f
00000100: 7f1b be59 d4ab c33f 8ba6 b405 6434 e83f
00000110: 2951 d02d c685 8cbf e918 d134 afd0 fe3f
00000120: fcfb 3515 256f 8ebf 8df3 8f2a 7a70 bbbf
00000130: c575 61e1 9d21 b4bf 9be9 4110 d6c1 ddbf
00000140: 2e68 9426 09d2 f6bf 2de9 d02c 271c 05c0
00000150: cf81 b8cc 5c67 87bf 9b16 07a0 9782 98bf
00000160: c372 d54a ea93 d5bf 6ded 5d51 0a00 0bc0
00000170: d68d 547c ef9b 6d3f bfff 87c1 3ab7 f8bf
00000180: 4cde e243 d4aa d03f 0c9d 5b27 5443 c7bf
00000190: a0d0 b9b4 7417 a43f 5d31 d8c4 dc06 f13f
000001a0: e04b 8dfd 0866 9d3f 18d1 ba3d 86a3 f03f
000001b0: 3eda 6131 744f f03f cff1 a4a6 66c1 19c0
000001c0: 04ed 5500 687e 563f 84c2 e110 484e 863f
000001d0: bc1a 5d98 d47e 8e3f 770d 8b38 40c9 a13f
000001e0: 78e2 0f44 52f2 c2bf daa3 5849 e939 f7bf
000001f0: 3c1d 9a04 ba3e f03f c8f1 d621 97dc a23f
00000200: 0887 1ec7 c9c0 aa3f cde0 5b6b 07d3 f0bf
00000210: 9719 aa4d 36ad e83f c272 3fc3 2f65 903f
00000220: 6124 3df7 4fe4 f2bf 02f4 2398 af7d f03f
00000230: e8b1 3cee 279c 7f3f a63b 0359 7adb bdbf
00000240: e8ac d4e7 7ba4 dfbf f62a 7911 09f5 02c0
00000250: 22b1 eed8 2e28 fbbf 750d ba48 bb0a 833f
00000260: 2f82 5b49 f82e f03f f287 720f 8118 f03f
00000270: c6f3 7e52 e90e 843f ffc8 4b4c eded 8cbf
00000280: 8f10 dc3c 1080 cbbf fd9c fc62 3932 f3bf
00000290: 6f1f b306 6464 8f3f 7b7f caa6 439b f33f
000002a0: 3282 40bf 9490 da3f 93c4 9205 7e7b 85bf
000002b0: b672 7a3f aa24 b9bf c661 37f2 f23f aabf
000002c0: 32cb b96a 8e08 a53f 8568 6c77 8aba f1bf
000002d0: 9df6 c69a 64b2 f13f 644b 50dd 024f c1bf
000002e0: 40d7 31fe fc7f e9bf b2fd 0ddf 5946 febf
000002f0: bcac 4b4c bdea e2bf 1ee9 448e 15e0 0dc0
00000300: 6ca4 2e13 7a18 fdbf 7eaf ae88 596e 833f
00000310: dd31 dd3a fcc2 fabf dc20 7956 69dc 8b3f
00000320: 7cfa 3f77 6d91 b63f 7242 95df dd1c f13f
00000330: c481 2d38 5108 f63f 2670 5e75 9708 87bf
00000340: f034 8f49 261a d53f 7560 7618 7dab f3bf
00000350: 388b 7e0e 5cb4 42bf 0be5 a51e 24ab 79bf
00000360: 6bd6 19dd 471f 94bf 17de b3cc 14b0 83bf
00000370: 6898 59bc 440f 88bf b884 38d2 75ad db3f
00000380: a85e 26f5 4869 d8bf 64c5 574d 9900 ca3f
00000390: 8291 9862 3ba4 f53f 01ac 6403 3e8d f13f
000003a0: f365 232a f2bc a9bf be8a 2087 6995 c3bf
000003b0: 4bcc 16e0 fe6d efbf 8823 c47e b251 f6bf
000003c0: 5cff c4d1 aa27 97bf 7345 d579 8ae0 e2bf
000003d0: b8f7 4ce9 aa58 dd3f 2712 46df 6d58 4f3f
000003e0: 49d2 65b5 df73 653f f054 92b2 1587 4ebf
000003f0: a779 dbb4 b9cd c53f f3a9 5ef6 e21c d2bf
00000400: 64c9 e6ba 23fa af3f 49b5 d9e5 60e3 c33f
00000410: 2b2d 0965 5ac2 ee3f a44f 6781 1e12 bcbf
00000420: 5087 cd63 aca9 9cbf d0cd 7eae 697e f13f
00000430: a6a3 4681 e509 f2bf 1f1d a790 54f4 d4bf
00000440: ee94 4a83 b29a fdbf d66c 5c6f 7991 f1bf
00000450: 74d4 5295 e90a 5e3f 9d5b 543f 5d1e bf3f
00000460: 78d9 43cf 0630 f33f 10f8 bdbb da69 b93f
00000470: a27f fa7d 4ecd f13f 77bb ee9c 98b9 f13f
00000480: a9ee 9757 67de 5b3f d338 ffb0 6709 99bf
00000490: 12dd 0918 680d 92bf 00d9 a75e cf1b f2bf
000004a0: 8a26 6027 ed9b ca3f 9684 4e14 a46d f8bf
000004b0: 715d d14a 36cd 613f 0ff9 5d61 3508 7e3f
000004c0: a170 1724 2f42 d0bf 3f52 724a 89ac d93f
000004d0: d90b 0669 a3b5 2ebf a43e d5a5 8bdf f4bf
000004e0: f51c a2eb ac3a 8b3f
2.8074664434100183e-06 -0.00014243684411753126 -0.00012584291856202286 4.362405407909891e-05 -0.00044594392381179266 -0.0008304570719474799 -0.0006108134186005171 -0.03827093923916006
0.01805252619818569 -0.01930920146272953 -0.7505035861846694 0.004788431050155068 0.005266794401856143 -0.004167296925922413 -0.3932660542616218 0.2779157004185155
0.008835722598660313 0.24718849894008665 0.3107340034476798 0.0012310901094513824 -0.002780070996583788 0.0005230956432889321 0.13172120569918488 -0.1590716764551337
-0.016210151526597393 -1.2767754283011967 -0.21037057544258123 0.0033674217559460135 0.0013243684350370106 -0.12686348430236305 0.06153886477754534 0.018835950333400558
0.1536813200184177 0.7563953505934519 -0.013927028916477529 1.9259483397632329 -0.01486042948704202 -0.10718501605147264 -0.07863795044382645 -0.4649558218731273
-1.4262782580394844 -2.6387465955023317 -0.011427617070752042 -0.02393567003470896 -0.33715302761065064 -3.375019679717005 0.0036143948988340653 -1.5447337684454252
0.26042658452522427 -0.1817422096421314 0.039241454182872504 1.0641753854025275 0.02870954558904859 1.0399229441946485 1.0193979195588692 -6.438868144814889
0.0013729110372356365 0.010891497626489562 0.0148903473851879 0.034738547231905885 -0.1480200607618547 -1.4516384949767969 1.0153141193166695 0.036839220887006585
0.052252107197331255 -1.0515207475382795 0.7711440579303596 0.01601099614332458 -1.1807403238074345 1.0306850378976837 0.007717281321486948 -0.11663021729621778
-0.4944143070194529 -2.369646202574013 -1.6973103021546838 0.00929781261152727 1.011467253258285 1.0059824565328168 0.009794066267085354 -0.014125684634084921
-0.21484568568860538 -1.1997617594404908 0.015328198866327828 1.225406314399122 0.4150745265669996 -0.010489449067195877 -0.09821571397555826 -0.05126914221517924
0.041080904510542374 -1.1080422081927577 1.1060529752716441 -0.13522373014765343 -0.7968735661258748 -1.8921755517074925 -0.591154717459538 -3.7344161143092967
-1.8184757947258516 0.009487819179262887 -1.6726038264633794 0.013603995276881546 0.08815654908537768 1.0695475324356747 1.3770305818980981 -0.011246855992617166
0.32972104247603706 -1.2293673472941269 -0.0005708169455725725 -0.006266728489543692 -0.019650576467446983 -0.009613192078616923 -0.011747872350678715 0.4324621727883584
-0.38142608585756443 0.20314327503687502 1.3525956965832795 1.096982968573457 -0.050269668239433594 -0.1529971990394951 -0.9821771980990744 -1.394945616894093
-0.022612256100955505 -0.5899097804596479 0.45853684218661384 0.000956586502568306 0.002618729525403905 -0.0009316307015462526 0.17034074145244668 -0.28301309642361544
0.06245528847229556 0.15537654135861548 0.9612247441631657 -0.10965147647158219 -0.027991002646906182 1.093362504598975 -1.127416138633842 -0.3274127400040516
-1.8502678993766568 -1.098016200069471 0.001833656414686827 0.12155707164889269 1.1992252441683302 0.09927146037622969 1.1126236840282009 1.1078115587403923
0.0017009743881989758 -0.02444993989757267 -0.01762926718444386 -1.131789560078289 0.20788349554668556 -1.5267678063612826 0.002173048057141074 0.007332047001794586
-0.2540395595986045 0.4011557795541058 -0.00023429507974634284 -1.3045765378809984 0.01329550832839608
