data/model/snv_model_w5_p7_500_hg19.pkl_262.npy (npy, 936 bytes, 1 tensors)

array f8 [107, 1, 1]
000000 f1 81 bd 1e 0f 4a 06 3f bb 42 35 8d da 8d 7e bf
       4.251345293826762e-05 -0.0074595009967459115
000010 3e 8c 8a c1 a3 ae 84 bf 15 bb 65 8e 43 aa 85 bf
       -0.010098723739537015 -0.010578658850787495
000020 4e 2c e3 29 72 bf 81 bf 54 b0 da d4 34 94 82 bf
       -0.008665935424138873 -0.009071743722721383
000030 73 eb 21 a5 b3 38 f8 3f 74 0e 71 cc d5 05 83 bf
       1.513843197869133 -0.009288473416865652
000040 66 db 6d 66 96 35 e7 bf d1 57 0e f8 0e 4f f5 3f
       -0.7252914429253507 1.3318013848961423
000050 46 51 8d be 54 7d 06 40 1b a2 6d c6 c9 d4 a1 bf
       2.8111967932583495 -0.03482657000751407
000060 0b 00 6b a9 9f 70 b3 3f b9 a6 67 a0 f3 20 f2 3f
       0.07593725095921415 1.1330448404136588
000070 20 f2 ce 13 7a 42 ac 3f ea f8 90 3b 6b d1 f0 3f
       0.05519467822839297 1.051127655678608
000080 7e d7 0b 51 91 0d f1 3f 2a ea 43 ee 07 34 a3 bf
       1.0658124128217135 -0.03750633986961234
000090 c1 ed 89 14 d5 49 9e bf 51 d0 03 65 d6 a0 f0 bf
       -0.029578523043239494 -1.0392669626135282
0000a0 5a 31 0f a9 30 00 f2 bf 8e 71 b2 eb 5a 8f b0 bf
       -1.125046406162332 -0.06468742613146203
0000b0 dc f5 d8 49 0f ba f0 bf a9 29 86 b7 a8 7c f1 bf
       -1.045424736468127 -1.0929343384656056
0000c0 72 f2 d7 d3 79 0c c4 3f 10 67 87 f1 9a d3 d3 3f
       0.15663073390887267 0.30979035937126387
0000d0 df e7 29 59 d4 76 fd 3f ae 73 9c 5a db 3b ce 3f
       1.8415111048657236 0.23620168613788678
0000e0 28 4c 21 c3 c4 c1 f3 3f a9 05 66 27 b2 4a f6 3f
       1.234806787707166 1.393236307049259
0000f0 2a ae f4 85 40 b7 b2 bf 1c 80 cc 1e c1 e4 f1 bf
       -0.0731087042847142 -1.1183482363776482
000100 07 6b 6a 4e 6a ac f0 bf 80 51 0e 54 7c 67 77 3f
       -1.0420935690987692 0.005713925988761637
000110 7d a1 d9 a6 88 24 d0 3f 0e d8 7a 26 7a 5e be 3f
       0.2522298459430415 0.11862910689782799
000120 db 1d 0b 22 0f 28 52 3f ff 01 d2 6f ad 12 f5 3f
       0.0011081836493519379 1.317059933469977
000130 d9 58 dc 3d 6f e1 a3 bf c0 45 82 bb 0a 42 f0 bf
       -0.03882930402885316 -1.0161235165181637
000140 53 40 8e 38 6a db f0 bf 15 86 29 9b 5e f5 e0 3f
       -1.0535680970388241 0.5299523382674943
000150 8b 20 3e 87 76 2a fc 3f 5f 8c 2b 57 e7 80 05 40
       1.7603669436375948 2.6879412470021147
000160 a8 19 4f b4 cb b0 e1 3f 5d 13 0a 8b 53 e1 df 3f
       0.5528315087947719 0.49812782838880826
000170 49 83 f8 8e f0 37 fc 3f a6 ff 6b 0d 71 fb e0 3f
       1.7636571488184976 0.5306935560365573
000180 f4 50 7f 47 d5 49 01 40 f5 fb 1b 59 a6 cf 00 40
       2.161051329205401 2.1013915025391676
000190 62 df ab c3 47 43 0c 40 d1 ce c8 91 48 53 6f bf
       3.532851723368297 -0.003823892342802761
0001a0 3a 94 ce fe 4d 3b 0a 40 19 c3 b9 d0 17 35 78 bf
       3.2789573580544387 -0.005910008457804116
0001b0 ea cc 0d 1a d5 a4 ff 3f d0 87 d1 b6 b4 57 7e bf
       1.9777422921877652 -0.007407861628140069
0001c0 b1 5f 4f aa 48 52 ad bf 5f f9 07 dd ff 6a f1 bf
       -0.05726840094547415 -1.088622916605878
0001d0 bf df 96 c4 6f 52 f3 bf 26 38 3e 1c ec 77 4f 3f
       -1.2076261214515254 0.0009603407747691458
0001e0 e6 d6 79 a4 a6 a8 dc 3f f0 36 ae bf 4e 78 e3 bf
       0.4477936369142824 -0.6084359878311414
0001f0 9d ad 51 31 eb f9 38 3f 49 3d a1 1a 5a 91 f8 3f
       0.0003811072541057505 1.5354863205173663
000200 25 bf d1 8d c3 7b 38 3f 79 51 1a cd 45 d1 bf bf
       0.0003735878397668083 -0.12428699738877026
000210 9e 1f 79 58 bb d6 9c bf 2c ac d5 64 22 ad b9 bf
       -0.028162886881801456 -0.10029807054313328
000220 73 e5 74 5e bc 3d f2 bf d0 06 cd 85 bd c9 b6 bf
       -1.1400722207748373 -0.08901581303237127
000230 a4 47 56 1a 24 6a f1 bf 66 55 6b e4 fc b6 f1 bf
       -1.0884133366384754 -1.1071747706058317
000240 30 0d ad 53 9f 8f 9a 3f b5 90 96 74 f6 bc a3 3f
       0.02593850086419741 0.03855104611582886
000250 2d 66 61 d5 56 7f f0 3f 67 ba 77 a7 58 f7 f0 3f
       1.0310886702703883 1.0603872815805973
000260 ac c8 05 67 53 31 f0 bf be 1c 63 8b 75 7c dd bf
       -1.012042429382329 -0.4607213841631611
000270 10 45 de 38 6d 6a fb bf aa 61 9e 49 c9 29 00 c0
       -1.713483068601196 -2.020403456827087
000280 d7 c5 8d d9 24 12 3a 3f a5 98 d3 6a ee 2f a4 3f
       0.00039780997899815706 0.03942818693194398
000290 3c aa c9 d9 5c 60 c8 bf 6a bd ec 54 7f 6d 00 c0
       -0.19044075616996448 -2.053465522265175
0002a0 a0 ba 47 68 02 da 9d bf 1e 9a 71 bc 91 ce f1 bf
       -0.02915195237613466 -1.112931953533582
0002b0 cb 8b 3b ba cb b8 f0 3f 55 11 e7 f2 c0 b6 a8 3f
       1.0451161646567353 0.048269300128171246
0002c0 34 79 3a ce fd 22 b6 bf 66 e9 52 55 92 ff d5 bf
       -0.08647142681954706 -0.3437238534203487
0002d0 8e 49 9c 05 e5 6e f7 bf f6 41 84 5b 63 71 ac 3f
       -1.4645738810691884 0.05555258266588574
0002e0 b7 61 64 c0 1f f0 f1 3f 5d b5 0b ae 05 a7 c1 bf
       1.1211240306202919 -0.1379096126396843
0002f0 41 55 5f 49 06 97 35 3f 47 62 56 01 28 e1 d2 bf
       0.00032943633538925007 -0.2949924481449994
000300 37 db fc d7 02 ce dc bf 5d 01 4d 52 82 e7 f9 bf
       -0.45007392017889764 -1.6190207686305123
000310 43 90 67 e1 3e 97 00 c0 90 21 70 75 18 3f f0 3f
       -2.073850403759964 1.015404185049281
000320 89 35 de 6e 83 d8 36 3f 00 83 46 45 b0 5d 4e 3f
       0.0003485985642946656 0.0009266958900760736
000330 ea 8b aa 41 27 14 71 bf 82 1f 15 a8 f2 2d ba 3f
       -0.004169610353218703 0.1022636089666076
000340 69 f6 d3 a4 a8 36 71 bf b8 cc 68 3e 50 16 b2 3f
       -0.004202517285418852 0.0706529762617717
000350 ec b2 62 b2 3d 48 c1 bf
       -0.13501712045890402
