data/model/snv_model_w5_p7_500_hg38.pkl_1492.npy (npy, 1432 bytes, 1 tensors)

array f8 [169, 1, 1]
000000 a5 f6 54 e3 9e 96 b5 be 20 62 f3 72 b4 ce 42 bf
       -1.2867666446392736e-06 -0.0005739575480233107
000010 b9 4b 78 a4 0e 26 39 bf 1c e9 cb 33 c7 cc 2a bf
       -0.0003837381122774836 -0.00020446712178296626
000020 78 63 84 c9 4b ae 52 bf 13 2c 14 3e 83 d4 53 bf
       -0.0011401882275718627 -0.0012103349366181556
000030 5c fe 78 d5 b9 6b 58 bf 7d 45 39 6f 51 28 bb bf
       -0.0014905276092490793 -0.10608395543501632
000040 0c 7b 4d ca e7 0e f6 bf a0 09 18 3a 41 1d 88 3f
       -1.378639021153222 0.011774549088845288
000050 e9 64 0e 16 57 d9 d1 3f 2e af be ca 4d e8 fa 3f
       0.2788903918640942 1.6817148132058253
000060 de 8d fa f1 91 53 b5 3f c2 18 4f 55 62 79 f7 3f
       0.08330642850574274 1.4671347935086918
000070 21 14 51 df 74 97 a6 3f a1 7f 29 15 f5 0d 84 3f
       0.04412427164110278 0.009792246540371087
000080 7d 8e 09 c0 3a be f5 3f 3a 9b 9a 82 2a a9 51 3f
       1.3589427472551556 0.0010779299868006313
000090 88 1e 6f 95 15 63 96 3f 61 9e 48 47 9c 0a ab 3f
       0.021862351651889017 0.05281532640611598
0000a0 18 62 41 78 95 45 e4 3f d6 84 c6 0c 22 a8 f9 3f
       0.6334941242922154 1.6035480975190715
0000b0 ed ba 07 4e 23 17 81 3f d2 af fc f3 ec 7a d7 3f
       0.008344913309853175 0.3668777830778228
0000c0 5a 43 e2 ed 78 25 f1 bf 85 80 7b a3 83 79 32 3f
       -1.0716485302293308 0.00028190101464354466
0000d0 b8 47 23 6d 89 68 4b 3f a0 8a 9b d5 32 a3 91 bf
       0.000836436369605168 -0.017224115645954385
0000e0 37 0a 23 72 2d 32 c2 3f 74 03 da dc 9c 8d 8b bf
       0.14215629647340375 -0.013453698625427647
0000f0 d3 eb ba b6 65 98 f4 3f b4 f2 98 ee 3c ac d4 bf
       1.2872063768288526 -0.32301257420094065
000100 10 e6 59 1f 79 1e 82 bf e5 23 f2 f4 b9 88 85 bf
       -0.008847185391675644 -0.010514691150335717
000110 71 e0 26 16 91 19 9b 3f 5f 08 5d 57 30 ae 73 3f
       0.026464716889421817 0.004804791291293935
000120 43 1c f9 8f 9c 76 d5 bf 61 e4 50 61 92 db e5 3f
       -0.33536447582122636 0.6830531979277447
000130 eb 98 fb 92 d5 a2 c2 3f 7f cf 97 97 35 35 d9 3f
       0.14559430767912515 0.39387264064793465
000140 10 b8 42 f2 c1 73 fe 3f 36 18 02 23 2a 7d 92 bf
       1.9032611335092078 -0.01805559004471765
000150 a3 54 ab 3c 39 3f a2 bf 97 47 38 c9 71 c8 d5 bf
       -0.0356386076506763 -0.34035915995002014
000160 7b 3d e6 d2 26 3a f0 bf 88 a2 21 aa 2a a9 79 3f
       -1.0141971815354214 0.0062648455224027025
000170 3d d3 cc 07 98 ae f4 3f 8d 96 b4 40 6b 5c ab bf
       1.292625456303724 -0.053439475678073035
000180 da f2 36 6f 76 a1 cf 3f 95 bc e7 93 52 96 f3 3f
       0.24711494856264588 1.2241998460338313
000190 89 40 07 c9 9f 39 f7 3f d9 cc ce 31 ee 58 8d bf
       1.4515683987301904 -0.01432977761746772
0001a0 a1 65 65 8a 9f 70 78 bf 96 ef 89 79 c0 13 f5 3f
       -0.005966780858523008 1.3173222301111074
0001b0 c2 f2 cc 24 d5 fe 7d bf d8 26 1f e2 de 5b 81 bf
       -0.007323105423719669 -0.00847601058548568
0001c0 39 cc 39 b1 9b ba 83 bf c0 3b 3f 6c aa 62 f3 3f
       -0.009633270593644482 1.2115883091353084
0001d0 83 48 b2 1a d1 0a e7 bf 99 7d 8f d3 ea fe f3 3f
       -0.7200704118170197 1.2497356666643553
0001e0 0e 9f 9c 10 ac 08 f4 3f 54 0f fc db e7 b3 b4 bf
       1.2521172188662066 -0.0808701431342887
0001f0 83 b3 ae 63 a7 27 a8 bf dc b5 7d 46 4b 45 93 bf
       -0.04717753497911927 -0.01881902330153716
000200 9d 97 10 d9 c6 37 9f bf 97 eb 5b fb 3f d9 f0 bf
       -0.030486208914360814 -1.0530395334924145
000210 68 fa aa cc 0a 70 f0 bf b0 6e 18 3d c3 58 71 bf
       -1.0273540491904445 -0.004235041285507599
000220 2d f3 ec b0 cc 12 f0 bf 18 1c e2 c6 d2 20 f0 bf
       -1.0045897399097143 -1.0080135125042542
000230 69 40 1f d2 54 69 b5 bf 36 71 95 4c 9d 28 a7 bf
       -0.08363847856458197 -0.045231738661387785
000240 bc 55 c6 cb cc 2e f0 bf 58 b6 6a a1 b9 32 f1 bf
       -1.0114257774306301 -1.0748840623231413
000250 f7 49 d9 1f f2 fe c6 bf e8 60 ff 96 20 52 f4 bf
       -0.17965532832256745 -1.2700506113379166
000260 55 df f5 6d 14 c0 f2 bf 52 20 71 b0 78 35 c4 bf
       -1.1718944831208848 -0.1578818189175331
000270 6a 78 ee f0 31 c8 c8 bf 9d 44 90 b2 5e 85 f1 bf
       -0.193609469072672 -1.0950610137117913
000280 f0 98 bc 05 1b 33 cc bf b7 5d 27 b9 c3 3f f5 bf
       -0.220309617806556 -1.3280675156182562
000290 ab 8e 45 5c 07 da f3 bf 34 88 6f 1e 53 8d b1 bf
       -1.2407296757091142 -0.06856269352968597
0002a0 09 e8 a7 f7 3f a9 f1 bf 93 e8 45 5a 5a b8 f0 bf
       -1.1038207696969968 -1.0450080419819059
0002b0 f8 e1 3f dc e6 de 30 3f 2f 03 c0 b2 5b 53 90 3f
       0.0002574266075039684 0.01594298628333773
0002c0 c6 d4 09 b7 4f 5a 84 3f 28 91 7b b0 c1 91 7e 3f
       0.009937880299938927 0.007463223075067561
0002d0 95 69 e4 9a 3f c0 94 3f 6e f7 41 01 a2 98 66 3f
       0.020264619664069967 0.0027583278807118894
0002e0 f1 1e 82 f6 0a 1d c9 bf 3f 7a 3b 79 8c cb f8 3f
       -0.19619881664788566 1.5496945129049349
0002f0 84 30 a7 21 43 73 b6 3f 0d a6 d8 1b 8d c4 fc 3f
       0.08769626208885667 1.797986134314104
000300 41 ac 88 13 1b 14 e9 3f e5 5b a6 55 89 25 a0 bf
       0.7837043172379553 -0.03153638048677702
000310 00 33 8b 10 df a2 aa bf 0c 5f 18 be 9d 20 e3 bf
       -0.05202385975790058 -0.5977314675137406
000320 9d 70 fa 92 ae 53 f0 bf 1c 9d 19 93 11 78 a2 3f
       -1.0204301587428184 0.036072301107930665
000330 7f fe e4 c0 d7 b2 f7 3f 54 da 52 63 2f 9d b7 3f
       1.4811627898160677 0.09224220442670489
000340 b0 1f e6 d6 6f d4 cc 3f 0f fb 04 c4 90 10 f6 3f
       0.22523305886374834 1.3790443093309397
000350 15 be a0 79 7f 68 f3 3f ac e7 04 68 78 12 c1 3f
       1.213012194737421 0.13337616995869206
000360 be 44 a8 32 ec e4 e2 3f 08 5e 28 fc d2 9d 03 40
       0.590444659175908 2.4520625781840444
000370 30 48 93 22 72 73 03 40 49 1c c9 63 ee d0 66 3f
       2.4313700391003508 0.0027851730394874747
000380 bb f5 16 c0 63 23 b2 bf e0 78 73 dc 6c c3 c9 bf
       -0.07085250320138574 -0.20127640499317234
000390 0e f5 9d fa b7 ff f1 bf 4c d9 6b f0 31 95 f6 bf
       -1.1249313153960574 -1.4114245788055824
0003a0 80 7b ef 3a 8c 1a 77 bf da 59 c9 20 85 10 f0 bf
       -0.00564055230549243 -1.004033210823414
0003b0 45 60 19 ae 7d 1f f0 bf cb c2 54 9b 03 cf fc 3f
       -1.0076882172343329 1.800540549051379
0003c0 81 09 40 d4 0d 4d 26 3f c3 70 81 ba 00 3e a0 bf
       0.00017014306843072746 -0.03172304417305007
0003d0 10 0d ae 21 ed a7 6e bf ca 57 f5 bb 96 66 84 bf
       -0.0037421828723737185 -0.00996129761794497
0003e0 6d 2f a0 d4 db e6 90 bf 7c 0c 4e 4b 85 50 f0 bf
       -0.016505656101841227 -1.0196583692166135
0003f0 63 5b b9 87 33 b3 f0 bf e4 84 97 d5 a2 a1 95 3f
       -1.043750314876626 0.02112440518056226
000400 c8 8a dd 17 4b 76 f0 bf 2c 61 c8 e5 fe 1b f1 3f
       -1.0288802082292694 1.0693348861587522
000410 1a 68 4b 31 e7 96 f2 3f 55 58 06 49 94 66 b4 bf
       1.1618415761536256 -0.07969023497420953
000420 74 b1 fe 37 a1 47 ac bf 92 17 ef 88 8b 5d 9f bf
       -0.05523399170428692 -0.030630283577714197
000430 02 58 76 9f 98 59 f0 bf 78 bb 2e e3 54 88 f1 bf
       -1.0218740681643799 -1.0957840799635203
000440 1b 63 f7 7d c7 4f bc bf be b6 28 01 ac b3 f1 bf
       -0.11059233498907554 -1.1063652081751765
000450 c7 a3 c9 a8 f0 21 f3 bf bf d2 85 d7 b5 8f fa bf
       -1.1957861512439523 -1.660085527311068
000460 c4 51 88 69 a3 15 2b 3f f4 df a3 52 fe ce a7 3f
       0.00020663852480197313 0.046501109683902
000470 dc a0 b8 2c 40 52 d0 3f 9c 78 c8 2b b7 56 fa 3f
       0.25502018325142983 1.646170779254624
000480 08 d1 4d ff 8b d7 c7 3f 12 0d 1d e9 64 5b f2 3f
       0.18626546827329826 1.1473130327220287
000490 2d 82 87 b1 f0 2a f5 3f ed 15 b6 44 b6 34 9c 3f
       1.3229834494342285 0.027544830268672205
0004a0 92 c3 c9 26 7a 8a b5 3f 73 fd e0 84 78 29 e1 3f
       0.0841442436883553 0.536312350777662
0004b0 1d b7 33 ec 7e 71 15 40 73 79 f0 57 b5 57 9a bf
       5.360835734039736 -0.02572520589102951
0004c0 50 79 ed 30 a1 8e f1 bf 5e f3 dc 4b 4e ba f3 3f
       -1.0973216925845755 1.2329848254587072
0004d0 81 42 9c d2 d2 7f 24 3f d0 4b 11 a0 fd 3a 74 3f
       0.00015639732856033778 0.004939070438086682
0004e0 33 f6 01 ec a7 27 49 3f d7 41 cb 14 32 37 d2 3f
       0.0007676668101478989 0.2846188738886019
0004f0 58 60 db f2 df ea c6 bf de 26 f1 d4 1f 9f 99 3f
       -0.1790428100418946 0.025021073696087075
000500 2d 4a 47 eb de 22 ea 3f 3e 5f f5 eb 92 e3 d0 3f
       0.8167566867144324 0.26389000933476214
000510 78 2e 15 dc c9 8b c1 be 7d 26 2d 7b 3d 79 ac bf
       -2.0916520219510936e-06 -0.055612489019563484
000520 2d 48 6c 6e 66 bc e8 3f 61 69 a8 ca 59 82 f3 bf
       0.7729980618189579 -1.2193239132235123
000530 26 cf d1 e3 2a fc 01 3f 2c 9b c2 c6 92 e3 bc bf
       3.430372132920264e-05 -0.1128474936727854
000540 9a 5b fe b4 68 e4 70 3f
       0.004124077808134974
