data/model/snv_model_w5_p7_500_hg38.pkl_1216.npy (npy, 1416 bytes, 1 tensors)

array f8 [167, 1, 1]
000000 a6 c3 c2 11 1b d0 ca be 33 33 86 b1 d5 33 3e bf
       -3.196348314992277e-06 -0.0004608532631429796
000010 5e 13 f3 95 74 1b 38 bf 72 d8 57 31 20 fe 3a bf
       -0.00036784740764188816 -0.0004118755908558764
000020 87 46 16 44 fa b4 58 3f 97 3d 76 4c 4b e0 40 3f
       0.0015079921725810479 0.0005150191945392676
000030 e8 57 ac 23 27 86 5e 3f 7d 64 71 b2 13 10 a5 3f
       0.0018630392284584244 0.041138282330117605
000040 c1 79 23 d9 37 39 d7 3f 51 aa 9e ec 0a 46 92 bf
       0.36286731915415876 -0.017845316593289976
000050 cd dc c0 fb 0d 70 da bf 6d 1f 5b d9 0e dd d9 3f
       -0.41308927140512425 0.40411730981985877
000060 4a 05 60 dd e8 e3 9a 3f 85 f8 67 be ea bd 73 bf
       0.02626003123441948 -0.004819790809504569
000070 fc 61 e6 d2 29 8f e0 bf 53 db 28 ce c6 39 e3 3f
       -0.5174759978427228 0.6008028055719968
000080 08 94 f5 df d4 5f aa 3f b8 b4 88 1c 15 42 f7 3f
       0.051512386645107766 1.453633414708106
000090 4c 45 fa eb f3 5c d8 3f 7b e6 5d 5b ef b6 53 bf
       0.3806733898610062 -0.0012032830686322926
0000a0 38 2e ce fc 74 0c 49 bf 05 00 34 c8 67 cc 4c bf
       -0.0007644244411592676 -0.0008788592098483155
0000b0 fc 55 8b 1b d0 67 93 bf 98 7e 9d 64 9e 70 e2 bf
       -0.01895070236317585 -0.5762474026814344
0000c0 d0 bb 98 54 ed 24 9c 3f d5 25 1d 12 82 1c e4 bf
       0.02748461560093657 -0.6284799913202571
0000d0 29 55 50 33 91 a0 e4 3f fd 65 28 dc 4b fc 83 bf
       0.6446004869673391 -0.009758560806448985
0000e0 54 5a 5e e4 a1 c1 be bf 6c f1 ba d8 9e 06 ea bf
       -0.1201420958080715 -0.8133081658375381
0000f0 47 81 1f a9 b9 ac 0a c0 09 ca 8c f1 5d cc 7b bf
       -3.334338494562107 -0.0067866964025591415
000100 8f 81 8a 1e 57 d9 c5 bf eb 80 56 d9 1d 12 d0 3f
       -0.17069519988309564 0.25110574936299085
000110 cf cf ad 43 8b 8d ae 3f 55 cd 59 ae 64 6a f9 3f
       0.059673645030585136 1.5884749231889448
000120 4d 6c f7 cf 89 9b a4 3f 36 ad 0a 88 a1 85 b2 3f
       0.04024916328099746 0.07235154696779919
000130 f4 38 d2 9a ba 8b a8 3f 73 08 cd b4 59 a1 f1 3f
       0.047941047095365535 1.1018921911750368
000140 77 77 94 fb 0e aa f0 bf b5 af f7 1b 77 a2 c2 3f
       -1.0415181948987688 0.14558304658510016
000150 17 06 af a0 65 49 f3 3f 9d 30 4d 18 e6 c7 f1 3f
       1.2054191853243361 1.1113034199980014
000160 10 5e 62 f0 a1 b3 ac bf 87 d5 ca 1a 55 cf f1 bf
       -0.056057987779407736 -1.1131182715010668
000170 d0 94 9c 60 df ec a4 bf e5 4f 3a 4e 9a 12 f1 bf
       -0.04086969427434328 -1.0670416885159224
000180 13 d8 e0 a1 24 83 f0 bf cd 9b 26 aa 6f ec 95 bf
       -1.03201735719404 -0.02140974498766095
000190 4e 8e a1 fe aa b8 d1 bf 03 26 84 f0 fa a3 fe bf
       -0.2768962370521181 -1.9150342364467867
0001a0 dd 56 29 77 c9 50 f1 bf a6 d4 47 a1 36 be 90 bf
       -1.0822233824487093 -0.016350606530939026
0001b0 1d 38 1f c1 6f d9 98 bf 67 88 8e 94 c5 0f 88 bf
       -0.02426695457671012 -0.011748832317440795
0001c0 45 ad b1 94 8a 7d 4d bf b5 e3 fa 14 c5 c4 e0 3f
       -0.0008999754585493977 0.5240197572485302
0001d0 bc 18 2c 42 a6 d5 d7 bf 18 95 1c d9 17 ef b4 bf
       -0.37241512739309335 -0.08177327204301255
0001e0 3b cb 13 02 b1 58 f1 bf fb 63 9d 1c 82 44 f4 bf
       -1.0841531830926232 -1.266725646759595
0001f0 2f 73 df a2 7c fb b8 bf aa d7 28 a7 b8 65 c2 bf
       -0.09758738495243045 -0.14372928773962929
000200 c6 dc 53 b0 9e b7 f1 bf 90 94 fa 71 84 4b f4 bf
       -1.1073290717884432 -1.268436856488993
000210 60 69 c3 d1 59 54 b2 3f d9 36 df a4 78 4f f1 3f
       0.07159959193396537 1.0819021644887725
000220 c2 05 06 6c 3e 16 f1 3f 57 27 0f 45 c2 5c c1 3f
       1.0679306239766082 0.13564327594786604
000230 a5 50 5d 65 9d e3 a9 3f 53 09 2d db 84 1d f1 bf
       0.05056468832359088 -1.0697067796287072
000240 b8 4a 9d 7d 04 c2 bb 3f 69 97 5a 66 6e 50 f2 3f
       0.10842922274359068 1.1446365354726942
000250 b9 ae d5 86 90 97 f1 3f 0e 72 51 53 45 d9 d0 3f
       1.0995030657749523 0.2632611573842788
000260 d8 b4 f6 88 1f 29 f7 3f 2e d3 e7 b1 7f 71 f4 3f
       1.44753983975834 1.277709670013063
000270 6f b0 da 65 dc 7d 3b 3f d0 3f 24 f2 07 d4 9b 3f
       0.00041948920066193265 0.027176021722936927
000280 c6 2d 25 bd 68 69 b0 bf 20 a8 58 e9 18 c7 9a bf
       -0.06410841577342472 -0.02615012096627123
000290 3f fe fd 43 9a f4 90 3f 27 d3 8b f9 59 ea f4 3f
       0.01655808486930099 1.3072147128961633
0002a0 c6 ff a7 73 fa 0b 6b bf 56 b4 2c d0 cf 55 f1 bf
       -0.0033016101490374898 -1.0834501392194134
0002b0 0d 77 e4 43 65 65 f1 3f 6b a8 56 6b 29 18 b7 bf
       1.087254777150011 -0.09021242971962955
0002c0 08 0a 3a ac 3d da f5 bf 13 f7 b8 0f 5d 99 b0 bf
       -1.3657814719778134 -0.06484014161921108
0002d0 97 fb 12 46 a1 79 f0 bf e9 cb d8 6d ef a2 f1 bf
       -1.029694818236498 -1.1022791186230683
0002e0 60 9e 30 64 f9 a3 cb bf ae 44 a0 19 85 d6 c3 bf
       -0.2159415950020387 -0.15498412848731874
0002f0 ff b3 ee 32 d1 31 f0 3f fd 58 4a 02 9c f6 ca bf
       1.0121623982952312 -0.21065092193448
000300 5c f2 f8 2b b4 0e f5 bf a6 e6 32 68 74 ea f3 bf
       -1.3160897939370875 -1.2447399206416008
000310 06 c0 5d f1 f9 9d fd bf 94 49 7c 43 cc 70 a8 3f
       -1.8510684421889905 0.047735579717613025
000320 4a 00 4f d9 2d 36 b3 3f 38 da 37 45 bf f7 a7 3f
       0.07504545741449067 0.046812035750850745
000330 03 a0 1f 9b 78 d1 b2 3f d4 a4 5d db cd c7 f0 3f
       0.07350877558894812 1.0487803048111362
000340 14 c4 63 16 b4 2d b5 3f 4c 6c a1 07 d6 bb a6 bf
       0.08272862955688282 -0.04440182536264867
000350 19 40 2c 00 4f 6c f0 bf 32 cc 82 7b 6a 88 f1 bf
       -1.026442528414924 -1.095804674591602
000360 75 e4 55 1d 74 49 c7 3f cb e5 77 e5 2a bd c2 3f
       0.1819291251411276 0.14639793591031344
000370 5b 58 86 6f 1b cf ef 3f a1 1d 10 7b e7 7f f5 3f
       0.9940316370218726 1.3437266165873114
000380 32 ee 44 b6 95 49 d9 3f 55 4b 7e 1f 35 98 f9 3f
       0.39511626052601223 1.5996600370605922
000390 e7 42 a0 ba 15 5e fb 3f 5a 68 8d a3 d4 30 79 3f
       1.7104699411467494 0.006150084133731049
0003a0 9e de 32 28 36 33 99 bf 58 3a 1b cd e2 53 88 bf
       -0.024609419063124187 -0.01187874973711904
0003b0 6a 82 c2 3e b6 82 ba 3f 93 82 e4 64 ce bc f1 bf
       0.10355700523587932 -1.1085952702634685
0003c0 d0 32 6b 94 84 09 ce bf 50 a1 ca 55 68 49 f1 3f
       -0.23466546294220914 1.080421767352238
0003d0 76 23 1a d5 ed 88 01 c0 0c 55 4e 5e 3e 19 c0 3f
       -2.1918598793603747 0.12577037434372362
0003e0 65 1a b8 08 09 bb ab 3f 05 96 52 6b 35 f0 f1 3f
       0.05416134101328821 1.1211446945466161
0003f0 a2 98 60 a3 60 a0 f1 bf fa 78 47 4b 1b 37 d1 3f
       -1.1016546613623537 0.2689884410045945
000400 5c ae 7a 67 99 c7 f1 3f 89 1e 16 2a da d7 f8 3f
       1.1112302820355557 1.552698292160047
000410 50 34 50 ba 16 fd 31 3f 70 2a 5f 02 3f 53 c7 bf
       0.0002744846809157918 -0.1822279702740448
000420 18 3c 05 a1 0f 3e d3 bf 23 d4 33 b3 f5 30 f8 bf
       -0.3006629059281649 -1.5119530677886892
000430 cc 53 f4 15 92 b3 f5 bf 0a 75 f9 ea bf ec f0 3f
       -1.3563404901117222 1.0578002146424432
000440 41 30 bd e6 2a 6b 33 3f 2c f9 4f 42 82 b2 6d 3f
       0.0002963046779214142 0.0036251587030157375
000450 0a f4 41 71 41 4a a2 3f 5a 09 b5 df 5e e3 95 3f
       0.035722775531191145 0.02137516250992042
000460 94 d0 7e 97 a7 fb dd bf f0 26 bd 5d fa be d9 3f
       -0.46848478121251813 0.40228137163340616
000470 f8 81 fb 03 75 52 b8 3f e4 dc 77 a8 55 ec fc 3f
       0.09500819537380056 1.8076988774098988
000480 5b 97 6d 4a f5 d5 e0 3f 47 70 3a a4 7d f1 45 3f
       0.526117940299382 0.000669657085797145
000490 b8 f1 71 d3 59 64 60 bf b0 70 cc d8 6d f5 9c bf
       -0.00200097602970414 -0.028279987675987328
0004a0 b1 5d 27 6e 03 c1 00 c0 ba de 52 28 0f ef 92 3f
       -2.094244824005465 0.01849006351105118
0004b0 64 ee 3f 35 1c 9d e6 3f 9e 51 23 d4 dc 56 ce 3f
       0.7066784896882834 0.23702583654688864
0004c0 8e 6f 7d c2 ff 88 29 bf 0c bf 67 7b b3 28 b2 bf
       -0.00019481775347684717 -0.07093354952644065
0004d0 db 36 79 23 d2 7e c6 bf ce ee 4b 05 92 97 f0 bf
       -0.1757452653131882 -1.037004490556615
0004e0 28 1d 57 fb a8 b0 05 c0 cb a3 85 5e d9 5b 93 3f
       -2.7112598072013903 0.018905064005057242
0004f0 d6 22 57 c9 3a 5e ed bf 84 28 13 15 ce 15 f1 3f
       -0.9177526409558492 1.0678234885440654
000500 01 5c a7 0b 93 fe 1c bf 8c 3b aa f0 e8 d0 a9 bf
       -0.00011060497755664701 -0.05042198121838401
000510 95 0d db d4 f9 38 bf bf c2 91 79 81 ca 2d f3 bf
       -0.12196313330337312 -1.1986794526684297
000520 2b 04 75 0c 26 c1 f0 be d2 d8 90 ad 3b 74 e8 3f
       -1.5978323770985688e-05 0.7641886129338451
000530 2d d7 c9 ac 22 1c 58 bf
       -0.001471551763783062
