data/model/snv_model_w5_p7_500_hg19.pkl_385.npy (npy, 1656 bytes, 1 tensors)

array f8 [197, 1, 1]
00000000: ca69 bb1f 827b ed3e 0ed2 a5af 6436 2bbf
00000010: 3a42 2439 429e 11bf 6d82 3117 aa1d 24bf
00000020: c6c4 48f2 2533 1dbf 66ed bc57 8a2a 25bf
00000030: 9fa1 1f27 f276 b83e f85d bed5 d85d 68bf
00000040: 22c9 37d4 7721 d73f 13ce 901e e842 8fbf
00000050: 600b 60a5 1bc4 debf ce8f 44a8 f71a b43f
00000060: 4c8f e645 5fc4 af3f 585f 62a6 0380 c43f
00000070: 37a0 ad96 87c3 f0bf f11a ce96 1bc4 f63f
00000080: 7241 43f6 7807 953f 2b5a 6fe3 f493 f03f
00000090: 913c 8783 a835 f03f 9a80 7664 3d39 a8bf
000000a0: fe54 bf3c a141 853f d278 b89d 48b8 b7bf
000000b0: 92d0 55a9 54ae f4bf e686 c00b 7303 f1bf
000000c0: 477d 3bfb 248a b03f 33df ee26 cde9 f03f
000000d0: 7a24 d6ba 0b35 0140 ad1e 5220 cee6 c7bf
000000e0: 5f85 a21b 3eca e2bf 8ef5 eb6c 627f 1ec0
000000f0: 8ca1 a1ba a69d f0bf 54dc fd18 0043 abbf
00000100: 0fd8 2d04 2dbc c63f 6dda a2b5 4a01 03c0
00000110: 9677 5105 eaa7 943f 494b 07fd 65e0 b6bf
00000120: 5c84 9a4e 6c38 a3bf 15b7 ba77 86f8 943f
00000130: 3e25 8319 a38e f0bf cb1d 0672 36ba f03f
00000140: 0a91 e2d8 72a8 c3bf 4b7e d2c1 9e2e f2bf
00000150: 30e4 2ae1 882c f6bf 42ac 4e7c 1602 02c0
00000160: 06bd a1af a6af 9a3f f664 d25c d2c7 933f
00000170: b9f2 bb81 4545 a53f 897f 3e1b c853 f03f
00000180: cc0b f81f a2c1 d13f 9856 77d9 1af8 98bf
00000190: f4e0 c2a7 e13f d73f 694d 3365 9580 fabf
000001a0: 8d8c d0b4 8611 c13f 9619 b524 878d d23f
000001b0: 0ceb cbce 6f56 f23f e2ad 219c 8e00 0140
000001c0: 956c 2094 c3ba 673f 3bc0 4010 1326 f33f
000001d0: 12f5 f096 580d e8bf 44f6 0c2c a944 99bf
000001e0: d8d2 dc34 e32e d3bf 8044 ba54 7ca6 71bf
000001f0: 068b 0969 cc30 f13f 1fbc eede ed59 f1bf
00000200: 4f5e 333c 960b e3bf ac57 0820 5472 febf
00000210: b2af 655f 2f27 0cc0 eada ab57 98f3 94bf
00000220: 53a1 ffad cbcb a3bf 8389 13e4 69a9 c33f
00000230: 9bd7 cb09 b1c2 a8bf 4af4 1ed7 5f7c f3bf
00000240: e52e ef1a 204c f03f 7704 4d05 c0c1 d63f
00000250: 0ddf 729c a9af 0040 b68a e794 5df5 f03f
00000260: 3b1d 8d02 1522 a7bf 1c68 3e8f b1dc bebf
00000270: 2e8e 73bd f75a 11c0 8bf0 236e 65f1 e9bf
00000280: 5821 b5e7 3ede 99bf 694d 44d5 fb3e f4bf
00000290: 9a52 eeb4 fa11 903f 6998 66f7 3dc8 963f
000002a0: d4d5 e69f f1f6 d2bf 8c2f c016 9c19 f03f
000002b0: 7ce9 4e24 51a5 dcbf b734 76b5 79b2 febf
000002c0: 6101 3986 846a fbbf c818 fa0f 59ea a13f
000002d0: f0c0 cbc2 dd39 a83f cf51 1958 4c8c e33f
000002e0: 884a 47ef 15e3 f63f 5546 df2d ba9b c1bf
000002f0: fcab 920f 4dee f1bf 6f2a f346 830f fcbf
00000300: b4ca 0525 d16b 753f bb28 4adb 1ebb 93bf
00000310: 86a1 3703 ec50 b0bf f13b 80f3 267f b8bf
00000320: 7aca 95eb 0463 dfbf d2dd 6a28 710a f9bf
00000330: 3959 27a5 900a 05c0 8eb2 11ad d8e7 b5bf
00000340: 1891 9456 d6f9 a5bf 1907 aa63 7c80 f0bf
00000350: 0584 768b dab8 e83f 8730 8988 373c c7bf
00000360: 766f 5204 beb1 f3bf 5c22 3d3e cc98 fdbf
00000370: d7d3 7c9a c40a b43f 8c3c 4f1e e18a abbf
00000380: c4d2 a58e 7d1f c2bf 16be 1a3e 4d23 f6bf
00000390: 9037 e1ee 37d0 f1bf c33b a28d 97d3 ca3f
000003a0: e92c a4fd de0e f23f 9356 fdfb a323 fb3f
000003b0: 056e 71bb cbea d53f c33c e0c1 2bb8 d43f
000003c0: c450 243b d883 f93f 7a84 150d 6da0 f63f
000003d0: fcb4 102c cd5e fc3f f858 a70e e861 813f
000003e0: 359d 675b a236 febf 6d83 ecb6 79ab 873f
000003f0: e148 891a dd7e c2bf 4586 9701 80e9 a83f
00000400: 51e9 3585 cc83 f03f 184c d02d 2598 f13f
00000410: ccb3 5f39 19fb 0cc0 602a 4cf4 470a 903f
00000420: e983 28ae af3a b1bf 5b6a 06ed 6c4d f03f
00000430: f310 e70e 6f16 22c0 4a17 6f7b 03ab 963f
00000440: 2a43 2568 f86b f8bf a881 4e30 42b4 f03f
00000450: 3876 c86f 3c27 823f dedb 21fe e179 713f
00000460: 4ee1 040c 3576 823f 50a9 03aa d63e 773f
00000470: 2a62 7d24 6984 8e3f 8061 63b8 0b2c e13f
00000480: 04fe 9fef 81cb bb3f 4017 d6d4 1c7c 85bf
00000490: 3c7b e6ff 0b77 d13f 32c9 bede c349 dabf
000004a0: 3410 5952 63fe af3f fc1d ce6c 9b3c 0b40
000004b0: a768 52bb 15a8 ab3f 6445 053c 23da eb3f
000004c0: 435b 0354 34c7 d2bf ac40 6f46 01f3 95bf
000004d0: 1b19 7661 ac18 21bf bae3 8356 aa23 b9bf
000004e0: 2db7 1982 460b e13f 4ed4 2522 32c2 00c0
000004f0: 3152 97d0 29c7 873f c24b 4583 05bb e93f
00000500: d72e 141f 3712 cfbf 97d8 3d82 cfde afbf
00000510: ede8 2713 7388 9fbf 4cf6 3875 6cd9 f43f
00000520: 1b96 6245 abf1 e5bf 8051 aa6b cd4e c1bf
00000530: d4b6 a5f7 e209 fbbf bbb5 7c34 053c bd3f
00000540: ac44 796e c669 aa3f a512 c4e0 17de c53f
00000550: 6d53 ee79 f2c6 a5bf 6be0 4e73 3555 cdbf
00000560: bbc2 f0c7 61ea f6bf 8ff1 710b dade f3bf
00000570: 7c5c c1a0 7863 ce3f b82c 97b9 4d4f f43f
00000580: 9600 1284 cbb2 f53f 09f3 a3e9 2c9f cf3f
00000590: e331 23f3 f30c bb3f 5531 ad3c 185c fe3f
000005a0: e5a4 428a ca1f e43f 4edb d88e d998 d63f
000005b0: 5318 ea87 c77b f63f 0324 0db5 05ae fd3f
000005c0: ea03 05f1 2493 a23f 0688 aa01 d97a a93f
000005d0: 7309 d104 633f 9e3f 9497 f49d b261 ea3f
000005e0: 295e af2d c299 eabf a871 c946 46f6 c23f
000005f0: 5a12 f8bd 52e7 f43f 21eb a865 9840 b93f
00000600: 4af6 f29a a14e acbf 7128 e763 104d 01c0
00000610: 45f1 7e35 142d 9dbf ce56 5a8f d3a5 bb3f
00000620: 42ec e2cb 0d2d f7bf
1.4058329717615918e-05 -0.00020761469916021107 -6.720809168237691e-05 -0.0001534719591260893 -0.00011138838869652603 -0.00016148508790956722 1.458205727273167e-06 -0.0029744372422546538
0.361417729610496 -0.015264333184041445 -0.48071948194426817 0.07853649004078919 0.062045075686255474 0.16015668510658077 -1.047736729227848 1.4228778734993137
0.020536317854579385 1.036122215669489 1.0131001603911367 -0.04731170512536771 0.010379085222590675 -0.09265569544411115 -1.2925612082154072 -1.0633421382012158
0.06460791715243373 1.0570804138969379 2.1509012791253186 -0.18673111513293375 -0.5871878185027234 -7.624398900892073 -1.0384890833175602 -0.053245547343003935
0.17761767105156465 -2.375630778343569 0.02017179162464052 -0.08936154773190909 -0.03753984889522918 0.020479298646640737 -1.0348235127042495 1.045462079435185
-0.15357814397896902 -1.136381871336101 -1.3858727260214998 -2.251019450331598 0.026060680837358262 0.01931694690265303 0.04154412468594643 1.0204545082305876
0.27744343873945065 -0.024383945010262836 0.3632740152638825 -1.6563924744740126 0.133347357071305 0.28988817772587916 1.1461027219763222 2.125272006776627
0.002896673192493158 1.196795524108906 -0.7516291568823894 -0.024675982774388552 -0.29973678743708154 -0.004309163730469412 1.074413690854898 -1.0844553669264838
-0.5951644111436937 -1.9029122592232666 -3.51913332490036 -0.020460491515190173 -0.03866421221738627 0.15360759388483922 -0.04836037869055972 -1.2178648379479164
1.0185853054162461 0.3555755664602382 2.085772726302713 1.0599036995487672 -0.045181900559834585 -0.12055501696741583 -4.338835678270284 -0.8107173110179401
-0.02526186265211669 -1.265376885484182 0.01569358567538135 0.022248237824577553 -0.29632225623512665 1.0062523735714164 -0.44759014650085027 -1.9185731018399517
-1.7135052912782032 0.03499105758696569 0.0473164844787578 0.6108762474710207 1.4304408404174485 -0.13756491889812375 -1.1206789596860736 -1.7537873050192976
0.005229775401277937 -0.01926849568784726 -0.06373477057025498 -0.09569018788191365 -0.49041865354880765 -1.5650493220144779 -2.6301587011941163 -0.0855689451725061
-0.04292173201455024 -1.031368626893203 0.7725651477704792 -0.18152517477790672 -1.2308941048458713 -1.8498041564181653 0.07828930637045005 -0.05379394049634198
-0.14158601250860248 -1.3836185861545167 -1.1133345919838327 0.2095822755404396 1.1286306293357546 1.6962013095229949 0.34245580010403415 0.323740901309929
1.5946886358479313 1.4141664992423828 1.7731448861407548 0.008487523028560137 -1.8883384294984584 0.011557532210248767 -0.14449657245365358 0.04865646380836756
1.0321774676836706 1.0996448316188943 -3.6226067049342188 0.015664219175088312 -0.06730173112784112 1.0189027079383297 -9.04381605692513 0.02213674012070691
-1.5263599460778985 1.0440084349612366 0.00886389938483055 0.004266627105713431 0.00901452486924428 0.005675161868774772 0.014900990892486272 0.5366266824085386
0.10857402897089946 -0.010490632291076829 0.27289104452386304 -0.4107522654768615 0.06248770122741157 3.4045933246995883 0.054016760937160506 0.870378129222598
-0.2934084721031704 -0.02143480293654025 -0.00013043503052418627 -0.09820046055018752 0.5326263943695487 -2.094822184352359 0.01161034267253411 0.8040797771339998
-0.2427433873893878 -0.06224678482878792 -0.030793951076682303 1.3030819491390444 -0.6857506137063781 -0.13521735913367294 -1.6899137185786701 0.11419708758759033
0.05158825014644583 0.17084024882219243 -0.04253347147383733 -0.229162865927495 -1.4322221574949896 -1.2419071623872673 0.23741062020664916 1.2693612336759497
1.3561511191365176 0.24704514892791732 0.10566639600728638 1.8974840517212972 0.6288807583233874 0.35307921361839056 1.405219584384686 1.854985911590348
0.03627887193807296 0.04976537843073463 0.0295386764230527 0.8244259915415904 -0.8312693493161919 0.1481407018317331 1.3064753933587299 0.09864189607553132
-0.055287408985787836 -2.1626289181631866 -0.028492275014046404 0.10799906015230507 -1.4484994854272064
