data/model/snv_model_w5_p7_500_hg19.pkl_1390.npy (npy, 1496 bytes, 1 tensors)

array f8 [177, 1, 1]
-2.2946218992023636e-07 -0.0005151722477793186 2.6357405130477524e-05 0.0004651709203919007 -5.71367132539542e-05 0.0008442189986186976 -0.0012348439582642995 -0.137521047110251
0.09646958351584332 0.004021382818021828 0.4242850098294886 0.04657293001355132 -0.00250495250434202 0.00034207757641551166 1.3922872455230313 0.01238725257633107
-0.011284197354130476 0.8702801371276924 -0.27537713717426326 0.012946342557134692 0.06012744297958465 0.04459940039639756 -1.0331410775842422 1.0738482609348254
0.4224484365872838 2.6040677949845 1.0542749640020057 0.004899098793492524 0.0030642189324692286 -0.1919609223311883 0.3950449435729138 0.1601299350360635
2.5928992505692205 0.5905934163149427 -0.005414319509239013 -0.004769269810140747 -0.019511826841084413 -0.017110365486304256 -0.6944740814601059 -1.17678355719857
-0.16439999524615484 -1.207421724616173 -1.191537191650718 -0.0014327009372088592 0.013088534979718933 0.1491220264490064 1.17714745683355 -0.0057705142222975216
0.815471711079721 -0.20913390533251336 -0.07687149173156722 -0.012506227991455818 0.01504321127230022 1.0075215545998413 1.036084311955528 -1.2162533238036803
-0.30214991482195713 -1.5135425016505348 -1.3605469221611786 -0.0024160259435009445 -0.0010152249936728132 0.00015165461108034733 0.015797004589518424 0.0013932468330420582
-0.6780304574820702 0.985895031203618 0.043704285242691404 1.7012144401575935 0.43867273313644467 -0.001000902518992676 -0.0015509818096768155 0.6435711057779728
-0.09071861715532151 0.024445358001914143 1.3805921153799032 0.47891638932141156 -0.012116787900004956 0.1681999114335941 0.06894956597547636 1.169138753578088
-1.006816548444986 1.5790319771508643 -0.014014858419306005 -0.06826076984685374 -1.002629847619262 -1.3649345273118594 -0.011422222946665856 -0.7831326557382429
-0.08831024705255804 -0.0076397023918748225 -0.0055539613314216476 -0.006119072016104233 -0.005220407270229374 -0.4453669463846831 1.0484960090711126 -0.058863779793221264
-1.1464104571032308 -1.0769301414392372 0.10407751149700108 0.015366742743671308 -1.0202433150500698 1.0532692388773612 0.19278828025033085 1.3007865485567103
1.182511409941593 -0.05847964074042068 -0.22188680610488 -1.1099493749885125 -0.2833012047422986 -1.3980818538321393 -1.3925018751460108 -0.04157545121995938
-0.16865293030222386 -1.2831700771774728 -1.0839760949647352 -0.026912665172005797 -0.6649846941526842 1.1114128999694814 0.00028652318575139507 0.04989777818479306
0.012362979167169448 0.03940180113605304 1.0062140925185077 0.056014843680269655 1.0698530508871127 1.049028987354229 -0.003860314014160704 -0.005794531384990573
-1.0050874771069456 -1.0065874302009532 1.0038916416338184 1.5388786226896896 0.0002721625368709236 0.003577926522854986 0.003345406942869958 0.011169888073229625
0.00973351779926314 0.08475777382102033 0.6827130570978474 0.1988556038715179 0.6736810679182907 2.003554385187621 0.0004676880913875851 0.045038530554568336
0.010561406386855592 1.114284482558538 -0.000769206101370541 -0.2856208948160219 0.06944178039713389 0.1743635580218556 1.0442135178222776 1.4417233704584616
0.00010799593805985219 -0.02325990032969982 -0.016294908137072787 0.004664428459969059 0.47950471870427225 -0.8881201351349065 -0.09441607181695603 -0.6774480963888131
-1.5509333827710066 -1.627179082938826 0.0001498823863212051 -0.0032835152634125607 -0.00013535828540554135 -0.043576926560971806 0.39300876176656113 -0.019298463974355164
-2.307757523530969 -0.32399501901227645 0.00040257825923831116 0.06321066435713117 0.901089467477098 1.3552971822149285 0.0003157983707999604 -1.402529420851098
0.006180124451205143
00000000: 499c 82c4 42cc 8ebe 7bd4 5efa 93e1 40bf
00000010: 6012 b416 43a3 fb3e e0c8 dfe3 457c 3e3f
00000020: 6dd7 c384 c2f4 0dbf 1472 af7e d2a9 4b3f
00000030: 3b6f a69a 4f3b 54bf 77d3 ec27 4a9a c1bf
00000040: af60 420a 3bb2 b83f 3875 02bb b978 703f
00000050: f0a4 5950 7c27 db3f bdfe 9236 68d8 a73f
00000060: 069f b122 4485 64bf 36cb de00 1c6b 363f
00000070: aa8c a2fd ce46 f63f 69fe 9ee5 7c5e 893f
00000080: 93e2 c754 2b1c 87bf 774c eaba 55d9 eb3f
00000090: 38b1 8e6d c79f d1bf 4ced 15af 9c83 8a3f
000000a0: c6fb 6032 06c9 ae3f 735a 3f8c bbd5 a63f
000000b0: 6a0e 46f0 be87 f0bf 074e 9983 7b2e f13f
000000c0: b0e0 d82a 6509 db3f bc33 007f 21d5 0440
000000d0: 4415 b66c 4fde f03f 2d18 91d1 1311 743f
000000e0: 13a4 4903 221a 693f a3df c2ed 2c92 c8bf
000000f0: 1522 4696 6a48 d93f 6a95 0b41 237f c43f
00000100: 4624 58f6 41be 0440 68c7 092a 24e6 e23f
00000110: a071 8e53 532d 76bf 3903 c41d f188 73bf
00000120: 5ab2 ab88 e8fa 93bf 36c1 be30 6185 91bf
00000130: 314e 79b5 2139 e6bf e736 cafe 1ad4 f2bf
00000140: b2bb 851d 0f0b c5bf 564d 3b71 9951 f3bf
00000150: 65b8 614d 8910 f3bf b78c e5ea 2e79 57bf
00000160: f207 866d 29ce 8a3f f419 5b39 6e16 c33f
00000170: f7b6 5a92 98d5 f23f 449b da9d d2a2 77bf
00000180: 69d1 3c21 5818 ea3f dea6 f159 e6c4 cabf
00000190: 4558 fb9e d9ad b3bf 72c9 c181 dd9c 89bf
000001a0: 75e1 87a3 f9ce 8e3f a457 f0eb ce1e f03f
000001b0: 65f6 bb24 cd93 f03f ae35 960b c675 f3bf
000001c0: 4591 a998 6c56 d3bf 051f 9b57 7837 f8bf
000001d0: 07b1 75d9 ccc4 f5bf 9c68 3c0d c6ca 63bf
000001e0: 6288 5689 29a2 50bf 08cf 9330 afe0 233f
000001f0: 4cd3 5808 172d 903f 59ad 5265 b3d3 563f
00000200: 257a 12ee 6cb2 e5bf bbde 89bc 738c ef3f
00000210: dcf4 9f77 6860 a63f 655b ffa1 2c38 fb3f
00000220: 25f3 9dcc 3613 dc3f 6dc6 79e5 1666 50bf
00000230: b25b 8d09 4a69 59bf 41f1 7e6e 2298 e43f
00000240: 0a09 d2d5 5539 b7bf ba01 a134 3408 993f
00000250: 19c1 0ac2 e716 f63f f2d8 69ed 90a6 de3f
00000260: d4ce 1abe afd0 88bf a710 661f 9387 c53f
00000270: 0c25 f0c2 ada6 b13f 5baa 71d6 cab4 f23f
00000280: f848 4aab eb1b f0bf 0a38 d308 b743 f93f
00000290: 644a 8d74 d2b3 8cbf 9b8e 17ae 8979 b1bf
000002a0: 864a 5898 c50a f0bf 3ec5 3f96 c5d6 f5bf
000002b0: 8a45 07d0 8864 87bf 8369 1a37 6c0f e9bf
000002c0: 0d0f fe16 809b b6bf f0d4 c9fe ce4a 7fbf
000002d0: addc 8124 c0bf 76bf 417c 0ee3 4f10 79bf
000002e0: 3d7f f567 fe61 75bf 2a43 5c5d e480 dcbf
000002f0: b326 4fc0 a3c6 f03f 47fc 42b2 6423 aebf
00000300: 06d0 d07d b257 f2bf 4cee 9819 1b3b f1bf
00000310: 69f1 20e4 d2a4 ba3f 30ac 3d4c 9978 8f3f
00000320: 8ea4 81a7 ea52 f0bf fac6 6dd8 30da f03f
00000330: a616 5d4f 49ad c83f 6a0b 528e 05d0 f43f
00000340: 2e89 8d15 91eb f23f e282 ec20 0bf1 adbf
00000350: 7932 d16f c966 ccbf 2ca9 9c46 5ac2 f1bf
00000360: d246 5260 9b21 d2bf 0371 f513 8b5e f6bf
00000370: c3ee d50b b047 f6bf 2ac2 9ca6 6049 a5bf
00000380: 2de5 0252 6b96 c5bf bded ca58 dd87 f4bf
00000390: 2b4f 5851 f757 f1bf 0f40 0c63 fe8e 9bbf
000003a0: 303e 37fb 8d47 e5bf 078b 9be4 58c8 f13f
000003b0: d86f 5cb6 0fc7 323f 36bc e49a 338c a93f
000003c0: c40a a2f9 c251 893f dbd0 900e 792c a43f
000003d0: cd42 c2f2 7319 f03f e005 6543 faad ac3f
000003e0: 2560 913b 1e1e f13f eae0 939e d2c8 f03f
000003f0: 80f6 2d4e aa9f 6fbf 30f6 b4ac 01bc 77bf
00000400: 18b2 3c9b d614 f0bf c671 d46b fb1a f0bf
00000410: 54b8 98ae f00f f03f ac73 cf30 3f9f f83f
00000420: 9b41 ef31 21d6 313f 75a1 e6ac 744f 6d3f
00000430: a07f 2aad d367 6b3f 8bc7 cbff 3ce0 863f
00000440: c9a2 fba4 2aef 833f bf9e a47a afb2 b53f
00000450: ab32 990d c9d8 e53f 7893 a0b5 1974 c93f
00000460: d896 5499 cb8e e53f 131b 8185 4707 0040
00000470: f32b a70e 81a6 3e3f 9562 954f 4a0f a73f
00000480: 9c1f 40f8 37a1 853f 9e77 30f7 1bd4 f13f
00000490: d87b 4e86 9134 49bf 1f80 92dc 9c47 d2bf
000004a0: c01d c8bf efc6 b13f 76b6 a889 8b51 c63f
000004b0: 9c67 d13b 19b5 f03f bff7 5f86 4c11 f73f
000004c0: 29f8 9816 7c4f 1c3f bfa9 e57c 71d1 97bf
000004d0: 5e03 29c6 9caf 90bf fea4 0afb 011b 733f
000004e0: ac33 478f 34b0 de3f 4f5a eaea 7a6b ecbf
000004f0: 53ad abd4 a62b b8bf ed46 57a1 a7ad e5bf
00000500: 006b d485 9fd0 f8bf 0a52 1fef ec08 fabf
00000510: 8f32 1ee5 37a5 233f 4a44 83d5 07e6 6abf
00000520: f83c 70d1 debd 21bf 030f e104 b74f a6bf
00000530: a30b b538 0e27 d93f 3714 88fe f9c2 93bf
00000540: c54e 9593 4976 02c0 4460 ae9a 55bc d4bf
00000550: f051 1f75 2462 3a3f 971c 2cf8 922e b03f
00000560: b2b1 3294 b9d5 ec3f cb95 1f19 4caf f53f
00000570: 952e baac 37b2 343f 8bbb a3b0 c270 f6bf
00000580: c63e 7386 5450 793f
