data/model/snv_model_w5_p7_500_hg38.pkl_1261.npy (npy, 2008 bytes, 1 tensors)

array f8 [241, 1, 1]
00000000: 5a41 5b74 f9a1 d33e 336f 0c50 5a09 31bf
00000010: be6b 58f6 4688 44bf e78e 9c31 ab45 54bf
00000020: f26a 65ca 00d1 61bf 3d64 96c4 c889 4fbf
00000030: d7e5 6cb7 3762 50bf fbc4 a54a 2567 9fbf
00000040: 24dd 41d4 b257 de3f 85bd db98 5090 0540
00000050: 35b5 cf99 495c 88bf 2806 57d8 3c48 6dbf
00000060: 6f89 845f 383e 9cbf b340 a593 b148 efbf
00000070: cce7 173b 1fd5 96bf 5288 a866 b309 e5bf
00000080: e698 77e2 6217 c7bf ce7f 8005 7e9e 653f
00000090: 0d62 cda0 a613 42bf 9431 8b0f 469b b03f
000000a0: a693 4d55 30ca ffbf 97b0 c65b c217 f33f
000000b0: 940d 2337 3368 51bf e528 04d4 5540 bb3f
000000c0: 3731 94bb b08a c1bf df66 79d0 311e 853f
000000d0: 9427 ea1d 669e c7bf 6665 0861 bb4a 02c0
000000e0: a9fa 5acd 0f15 f03f 598a a764 0e03 863f
000000f0: 4546 61c8 a5ba ad3f c9f7 1ea3 8bdc d93f
00000100: bb4c 83ea 8df9 583f 3f0b 73ee 9555 6e3f
00000110: 6b7a 49b8 b4ea 093f 51ca 9f04 6618 37bf
00000120: cd07 a120 8d96 ad3f 21b2 bebc f603 c6bf
00000130: 94a4 f4a1 ee7b bc3f b458 32be 5365 44bf
00000140: e81c 7354 5164 f93f 3e7b 92b8 92e3 893f
00000150: d8e6 8cb4 d58d 983f dce6 2e68 4380 e2bf
00000160: b874 745a ae69 da3f a930 5c6c a3ff 1b3f
00000170: 5ce4 9727 b2f6 00c0 6bb8 726d 3b51 a23f
00000180: f075 1fe6 8f98 76bf 6a8f b3fc fcc2 d1bf
00000190: 3691 48b8 2029 f03f b9d4 b28d f963 02c0
000001a0: 78ae 6ef1 ae2d 75bf 6d62 c5c7 ff36 f8bf
000001b0: 68c9 ad5f b34e 74bf 8fdb 7f4c 3945 c6bf
000001c0: 5e10 aad1 66e2 e03f 5eac a70d 0042 5e3f
000001d0: af5e b714 f2c6 783f 2377 34a8 671c 913f
000001e0: 195f ea0e f299 80bf 9813 e902 856a 623f
000001f0: 03f0 9042 6ffd aebf 9b2d a54b 7ebe f13f
00000200: 7d8c 7c64 3244 c5bf 15af 1748 3865 c3bf
00000210: de94 fc79 c062 00c0 8db4 c63c ab66 a33f
00000220: b7ea 66b6 598c ac3f df03 06dc 7450 d13f
00000230: de71 bee1 7bf1 eb3f 1e06 a1bb b976 703f
00000240: 7fe4 e53d e752 db3f 9722 d72a 7625 dcbf
00000250: 140e adf7 db0a 683f a172 3de9 7375 c5bf
00000260: 8fe0 ad02 9d42 10c0 4212 9c11 3d0b c1bf
00000270: f7fb 1f6c 83f9 f8bf ad3c 20b9 d7bb dfbf
00000280: b84e 8115 2a8a 713f 2ea2 bcc8 e693 c93f
00000290: 8d2e 9b9a 2f12 f23f 7feb 19d0 0b61 f63f
000002a0: c2b0 0bbf 10d6 703f 6e63 5cb8 ed12 fcbf
000002b0: 377f 9c33 9177 c03f 1d78 d543 7dcd 6dbf
000002c0: 2dae ccda 0075 8cbf 4241 7983 468e 6ebf
000002d0: b151 f0de 5f87 7ebf 5631 d135 5f5a 993f
000002e0: 9548 45f7 944b dabf 5b29 dbff c288 bc3f
000002f0: e9cd 0ea6 6ddf cc3f ba05 33c6 43f0 f83f
00000300: 7f43 a08a 277f a8bf 6ba3 4a9d 0929 9cbf
00000310: 3424 2296 9553 f9bf 6701 d4d3 b1b8 c6bf
00000320: 08ec 4969 2ae5 d7bf a992 5788 71ef f03f
00000330: 1f65 b920 ecb3 01c0 a8c7 ed23 ba67 433f
00000340: daa3 6999 0d41 a53f d002 efae 95b8 cbbf
00000350: bbb1 a0d9 7ae5 f03f 25d4 e76b d15e 00c0
00000360: e716 eb4d 1b56 aa3f 6a53 1ba4 9f92 ee3f
00000370: cc37 2748 75c3 a0bf e5a4 88db 8340 63bf
00000380: f188 08b8 f7fe c1bf 4f58 781f a303 87bf
00000390: 8443 ed9a 7261 06c0 be36 a8ac b5d9 58bf
000003a0: 9562 16ae c2ad f6bf edc3 3eee cd47 a2bf
000003b0: ba62 e12e 9e6f 473f 85e9 8b80 ee28 4bbf
000003c0: a357 f649 fc95 64bf 7800 49f6 b1de 813f
000003d0: 206c e25c 2686 7bbf b7b3 ba4c 2b47 963f
000003e0: 8d11 1398 2e54 f43f c069 2ea3 d7ab cd3f
000003f0: cc42 53c7 0fbd 93bf cdcf 2300 9ad7 ffbf
00000400: b49f 04cb a238 d0bf 45fa d3ee 9e58 933f
00000410: ddbd d2d8 724d f93f 0c64 89df 900e 923f
00000420: b512 d800 8f0d 93bf d8b0 1d28 a75e f13f
00000430: 132d f2b9 2921 6bbf b6c9 280f 92e5 84bf
00000440: 6aae d89c 7e71 82bf a3cc 8ec7 668d f03f
00000450: 58ef c9b9 959b ccbf ef8f 272e 92b5 bdbf
00000460: 103b 95fc 7502 fbbf 24a8 b2c3 cac6 e7bf
00000470: 2f1b 0467 a546 5bbf bee2 cde6 090c 6cbf
00000480: d097 ff67 119a aebf be27 7ccc 8aae e1bf
00000490: 40d9 e721 3fce 773f 80cc af4a d9cf d83f
000004a0: ea9b 1aa8 a688 adbf cc8f c68c de99 743f
000004b0: 3f61 f436 6258 2ebf b292 6365 460c 83bf
000004c0: 3218 4f1a 70ec 7bbf 17d7 7490 6443 bdbf
000004d0: f39e 3eb1 46f0 e3bf 4bff 13c8 5fb6 b8bf
000004e0: 5d02 45ee ff34 efbf 288e 844a d2a4 f5bf
000004f0: a944 5330 f3d9 873f f8d6 3e89 4787 933f
00000500: 099f b817 acd2 c33f 1fe4 ff25 1f86 e63f
00000510: 7cdb b962 7de3 8dbf 1e28 d878 d9f1 ecbf
00000520: dd37 c0cf 839b da3f f226 f23d 4ec0 963f
00000530: b6b1 b8b0 7a9a 86bf d517 c864 1e2b c13f
00000540: 0f4a 9dd9 50b0 3540 6669 4637 3be3 f33f
00000550: a29a c911 cd44 99bf f568 4c38 4ee9 a13f
00000560: 827d 7600 7a72 f0bf fd81 9361 9879 a43f
00000570: 4861 054d c1c3 aa3f 5116 526c 7d6b c73f
00000580: 1c55 502b 6dd6 eb3f 6fb2 f642 76f7 8dbf
00000590: f660 34c5 2640 f03f 1f1e 911d baf6 07c0
000005a0: 887b ee40 c64f 703f e43f 7688 ad2a 81bf
000005b0: c7e4 f023 b8ea 66bf c5e3 1b3e 356d 84bf
000005c0: f0c0 2568 3f1c 7abf a5d3 2aaa 3990 cabf
000005d0: f2a3 baca a8bd f03f 25f6 3ded f534 b8bf
000005e0: aa75 9afe ef33 e5bf e108 ef1a da49 febf
000005f0: eb4d 7998 15db 963f 5199 cde4 98b5 9c3f
00000600: 6472 b032 59d2 a7bf f217 0087 40ee e93f
00000610: c2d8 2034 7e24 cbbf 911c cb2c 8b13 f03f
00000620: 200c c886 8203 fcbf b553 24d0 5429 b6bf
00000630: 1a7b eb3b 6935 c0bf 7c14 d1e8 c816 b4bf
00000640: 7687 437a f061 dabf 671a cbbc b5bc f4bf
00000650: b47c e10f e5eb e1bf b6a1 9053 e4ae 02c0
00000660: 734b 624c d3b5 01c0 0ea9 43ce 4890 9c3f
00000670: fa86 4347 2f53 903f cdb3 ab36 4e32 f03f
00000680: dd52 3ed0 e560 f03f 20ff e14f 8494 ad3f
00000690: 5bec d639 b099 f13f dae0 9623 6467 f03f
000006a0: 056c 2265 a1ad 753f 627d 9b97 8034 b93f
000006b0: d4c7 bd78 2032 cf3f 17d4 0032 e8d3 d33f
000006c0: 7c52 ee10 dd9a f73f 7ab6 b5c9 7866 f63f
000006d0: d846 1d85 fec2 f03f 80a2 31ec 1680 5a3f
000006e0: c3da 8e3c b71b c0bf b95b 8e25 ae7e f1bf
000006f0: a840 f7a6 b2fc f4bf 4da1 3f98 b785 c03f
00000700: a2eb b003 856c f33f 949a 185b a4a7 f03f
00000710: 4202 d615 5cad 743f dd7d 0edd 8ad9 823f
00000720: 7104 bec0 4ec9 9e3f a4ab 7d98 c4e1 ddbf
00000730: 55ad 7042 e9b9 df3f bd1a fdc5 99a1 743f
00000740: 1e6d 46bb 391d ba3f fb2f dd0f cd04 f23f
00000750: 093e c10e c8b0 443f 1591 077b ad1d 733f
00000760: ed5d 97e7 db78 fdbf b5ee 0b02 47b1 ba3f
00000770: 435a 6671 ea80 92bf bea9 4288 ccf6 e13f
00000780: 34fd 1923 9bdd e3bf
4.680803447690578e-06 -0.00025995688342715927 -0.0006265970702686791 -0.0012373134436040546 -0.002174855751190357 -0.000962470084391438 -0.0009999794107912097 -0.030666907006382065
0.4741026947808271 2.6954662267741605 -0.011894774443102033 -0.0035744846706797957 -0.027581101255358783 -0.9776237376882108 -0.0222973708932626 -0.6574341778798589
-0.18040119226424806 0.002639051566816853 -0.0005516589750227966 0.06486928824887733 -1.9868625003957532 1.1933005890851172 -0.001062440886514836 0.10645042825868563
-0.1370449939644318 0.01031149785483215 -0.18452145062138625 -2.286490209645012 1.005142023248178 0.01074801678345698 0.05806463309330615 0.4040860264757354
0.001524342145832232 0.0037029198025221584 4.94324113204839e-05 -0.00035240641284343006 0.057789240105662644 -0.17199596611080017 0.11126605466837908 -0.0006224306965971955
1.5869916247191274 0.012641092546173401 0.023978556771203724 -0.5781571421459506 0.4127002604817096 0.00010680613476327323 -2.1204569905499238 0.03577600203549099
-0.005516588311335266 -0.27752613714095864 1.010040969712532 -2.2988158292961 -0.0051705201830533 -1.5134275249057751 -0.0049578673159536915 -0.17398754344295894
0.5276369185453509 0.0018467903633972087 0.0060491043363623395 0.016709918633856746 -0.008106127815423346 0.002248058116750728 -0.06052730262351249 1.109007163514298
-0.16614370256965919 -0.15152648468153332 -2.0482186823088417 0.037892676514595804 0.055758288875457244 0.2705356739680251 0.8732280167637858 0.004019475478402449
0.4269350151512938 -0.4397864740717891 0.0029348655929497623 -0.16764687431977612 -4.06505207239401 -0.13315547332617156 -1.5609163497572334 -0.4958400066252107
0.004282154455797098 0.1998260955963515 1.12943992989577 1.3986929062800468 0.004110398688436047 -1.7546212388608313 0.12864890117725178 -0.003638024004131614
-0.013895041157943567 -0.0037299515932220093 -0.007453321929478938 0.02475880399679061 -0.41086315295718495 0.11146181818472682 0.22556849106113866 1.5586583845291515
-0.047845111534235756 -0.02750029585391493 -1.5829063286385123 -0.17751143305941783 -0.37336216241936926 1.0584578824865878 -2.2128527218416276 0.0005921992195523267
0.04151194093430606 -0.2165705780189655 1.0560253621180056 -2.0462978773234846 0.05143819166327806 0.9553983884057804 -0.032741227205050544 -0.002350099119457926
-0.14059349523547085 -0.011237406156436118 -2.797581873288836 -0.0015167497791738617 -1.4174219894686406 -0.03570407422319719 0.0007152101877735053 -0.00082885404216819
-0.002512924911296248 0.00872553856709167 -0.006719732146076601 0.021755863722024062 1.270552248040164 0.23180671184384316 -0.019275900402876897 -1.9901371007408557
-0.25345678163511853 0.018892749144465055 1.5814083547264695 0.0176336895404781 -0.018606409479633174 1.0856086318045097 -0.003311711785107038 -0.010203496062875721
-0.009005536233494389 1.034521846316047 -0.22349807330817373 -0.11605180384464096 -1.6881008020897674 -0.7430166074966604 -0.0016647925622820905 -0.0034237092390266557
-0.05976919550430149 -0.5525564187857908 0.005811926470860762 0.38768608373283797 -0.057683189411640814 0.005029553733411473 -0.00023151587399961902 -0.009300756425042554
-0.006817281629031101 -0.11430958296554326 -0.6230805837448926 -0.09653280863494478 -0.9752196935369956 -1.3527396117068609 0.011646175300855726 0.019070737602041782
0.1548667064500864 0.7038722746066276 -0.014594058585527973 -0.904522644065995 0.41574187553567105 0.022217962771299456 -0.011036833303557408 0.13412837906815747
21.688733673954683 1.2429763945752597 -0.024676517687476925 0.03498310506093275 -1.0279483812408619 0.03999019805064916 0.0522747427482409 0.18296783246130358
0.8699251028034811 -0.014632152479714137 1.0156619742684234 -2.9954721746360202 0.003982328823353927 -0.008382182814585755 -0.002797469758232116 -0.009973922689356382
-0.006374595339693409 -0.20752640541982462 1.046303550634772 -0.09455811540643617 -0.6625900242540201 -1.8930302669619368 0.022320115500702824 0.028036488499674054
-0.04652670615925983 0.8103335034109007 -0.21205117745711816 1.0047713994734162 -1.750856901636105 -0.08656816560353671 -0.12662997651838098 -0.07847266849519657
-0.4122277444822581 -1.2960717558613852 -0.5600457487270405 -2.335396435595807 -2.2137819259164018 0.027894151296018292 0.01594232437572083 1.0122816215109538
1.023656667185768 0.05777371859676195 1.1000215777737796 1.0252419843873697 0.005292540025176433 0.09845737172462557 0.24371724982807896 0.30980877764824427
1.475308481346615 1.400017536095588 1.0476060104160094 0.0016174529889899925 -0.12584581810889092 -1.0934277979883815 -1.3116938135245082 0.1290807240868709
1.2139940399344842 1.0409282263223405 0.0050481412012009525 0.00920399176703673 0.030064802660039584 -0.46690478221597176 0.4957221173123874 0.005036926915471693
0.10200844595094735 1.1261721248329184 0.00063142555655732 0.004666974695713107 -1.8420065924200302 0.10426753807035534 -0.018069899722457327 0.5613768254600513
-0.6208015142036971
