data/model/snv_model_w5_p7_500_hg38.pkl_397.npy (npy, 1416 bytes, 1 tensors)

array f8 [167, 1, 1]
0	0x3f0367e0e82c8b0a	3.7013579478070434e-05
1	0xbf10745e5ab4d797	-6.276918309286308e-05
2	0x3f011e7613a52340	3.2651880661099895e-05
3	0xbf2133b7873dc9de	-0.00013124099097756766
4	0x3f239bdade7d9d15	0.00014960333578104752
5	0x3ef280fd705334fb	1.764666287300697e-05
6	0x3f01a03d013246b3	3.3618795122992115e-05
7	0x3f54c4f4d94624a7	0.001267661199650308
8	0xbff135c34bfa6b98	-1.0756257026575664
9	0xbfd7a706dd1db523	-0.3695695075355891
10	0xc0107d5d627cbb57	-4.122426546919846
11	0x3ff04c4ac47b29b1	1.018625991348568
12	0x3fa9eb0c271e1155	0.05062139489658316
13	0x3fa4c28b6df285cd	0.040546757861431006
14	0x3ff7328be116eebf	1.449840430504011
15	0x3fe26707a7542b65	0.5750768917217611
16	0x3fcf322bd662d634	0.24371860473699913
17	0x3ff377bc41cf7945	1.2167322703094936
18	0x3ff69d56e43f791e	1.4134129444060544
19	0xbf90d5fd13360922	-0.016441301629592016
20	0xbfa9e662dfcc82cc	-0.05058583242339906
21	0xbfd21d1fe7bca6c6	-0.2830276263290269
22	0xbfe1e9e8626cd244	-0.5598031923642073
23	0xc00828ac5e8f7e47	-3.0198600184956237
24	0xbfa4099165e1fe66	-0.03913549774824503
25	0xbfce88af47069dc7	-0.2385462853246578
26	0xbffafa3aac879545	-1.6860911120832764
27	0xbf70822fc589c0bd	-0.004030405624334485
28	0xbf9ed5db46d8b4eb	-0.030112672995689243
29	0xc0061cf122370534	-2.7641318009415503
30	0xbfccd71025edbbb6	-0.2253132043074097
31	0x3f9212f79a74ac24	0.01765047912810415
32	0x3ff234ba3a8e49a0	1.137872914060246
33	0x3fe50513e3106781	0.6568698344083118
34	0x3f85e3ae21644e35	0.010688171762502122
35	0x3f902dfa01f29e01	0.015800386780624013
36	0x3f8cea25162aaafc	0.01411847089669526
37	0x3f93e5c2dee8815c	0.01943115697406604
38	0x3fded20b592a84ac	0.48157008845925975
39	0x3ff6d0288db5a5c5	1.425819924881908
40	0xbfa3c9b2a8d7cb65	-0.03864820777007231
41	0xc0000181d9743d2a	-2.0007359493826202
42	0x3fb626a207ed4623	0.08652699178244254
43	0x3fd25e5c5a0d48b4	0.28700932306413596
44	0x400c59e907e75e46	3.543901502369212
45	0x3fc25b10702b312f	0.143404059190638
46	0x3ff0e64ccaf2d5c8	1.0562255790404027
47	0x3ff854fdcedecad8	1.5207498627539078
48	0xbfa096cc4bc8e17e	-0.03240049767595375
49	0xc000f359c88c38c8	-2.1188235919754312
50	0xbf9a800148c03ca2	-0.025878925385822378
51	0xbfb422156e847011	-0.07864507625748753
52	0xbfe3db315931c88e	-0.6205069295958923
53	0xbff9992b8df5a2fd	-1.5998950524610216
54	0x3f8def02049d62b0	0.014616027608711363
55	0x3ff2fcd9db26085a	1.186731201218683
56	0xbfb3d889cd0123a9	-0.07752286200515236
57	0xbf99efedc07ecb90	-0.025329317926388095
58	0xbfbb559460580fdf	-0.10677459098957297
59	0xbfd0c8cc38d8f3a3	-0.2622557215834666
60	0xbfc7ebb83bed69c5	-0.18688109327452032
61	0xbfdbf899e827328a	-0.4370484130020392
62	0xc010f47b059714fc	-4.238750541063606
63	0xbff3ab41dd693b28	-1.229310860526036
64	0x3f8b2443ac69278d	0.013252762507494764
65	0x3ff033c9749b4565	1.0126432948057638
66	0x3ff0456d315bd5cd	1.0169498375010904
67	0xc030d7c063625088	-16.84277936125048
68	0xbfa27be0498e2c93	-0.03610134981053039
69	0xbf7ef30298c8459d	-0.007555971282742571
70	0xbfbcb9b663559af7	-0.11220874715000294
71	0xbff9147ff4b1c122	-1.5675048406956837
72	0xbff0893b14d8d388	-1.0335036100707118
73	0x3f930dc593970536	0.01860722268407252
74	0x3ff0cfa8b5fa963c	1.050698004584219
75	0x3ff04190de01f1d9	1.0160072967693081
76	0xbfd4945bfd44326a	-0.3215551350884086
77	0xc006fe0bc3da5077	-2.87404587755196
78	0x3ff024fb8e4102b9	1.0090289646906696
79	0xbf800d3863677d65	-0.007837715657784636
80	0x3f76125af6f0aafc	0.005388598757273707
81	0x3f8a92c1fdd4bed2	0.012975230749901288
82	0x3fb1e76a2bd67d8f	0.06993735857257931
83	0xbff347b3e6b074ea	-1.2050055514621882
84	0x3ff392c7306aa109	1.223334492804556
85	0xbf73c3d5a0e1fedd	-0.004825434194685588
86	0xc004cffbe6f25677	-2.60155468394333
87	0x3fb694e0b7b4b99b	0.08820919499405593
88	0xbfc7c81d759a06f5	-0.1857945274569414
89	0x3f8a3d786f47c6a0	0.012812558074958347
90	0x3ff03d3ddacea3c9	1.0149515673785905
91	0x3ff02d54fe78d8f2	1.0110673847498757
92	0xc049481f388bd954	-50.563452785764326
93	0xbfbaa607472de314	-0.10409589278959813
94	0xbfcabd7968fa42dd	-0.20890729547365697
95	0xbfc101083f3a9402	-0.13284400069565555
96	0xbf89ba7654557361	-0.01256267971864994
97	0xc0025290570a08c9	-2.290314369195674
98	0xc022c678ad4e5133	-9.387639442262843
99	0x3f9b907c9929a0f4	0.026918360565475433
100	0x3ff14397c38298c5	1.0790021550288185
101	0x3f94ca9cd9ff6d17	0.020304156117942087
102	0x3ff03313d08b3435	1.0124700685730776
103	0x3ff0731a5bcf67ca	1.02810130942679
104	0x3f87274e4f20a7e0	0.011305438794881384
105	0xbfb4852bf6cbe665	-0.08015703940682213
106	0xbfd788d35197371f	-0.3677261635574371
107	0x3ff018515b743d41	1.0059369633125501
108	0xbfe1becb1acd31a6	-0.5545402072398715
109	0xc005330863a42657	-2.6499183449239285
110	0xbfff27dcd50aa2bb	-1.9472320863662123
111	0xbf92fadc726a345b	-0.01853508423169035
112	0x3f9a919ff2747a87	0.02594613950088356
113	0x3ff22f0ac05f19fc	1.1364848627578104
114	0x3f9288efb093c528	0.01810049548379769
115	0x3f97a5ef8209edf5	0.023093931495607085
116	0x3ff05213d15167ff	1.0200384308323007
117	0x3ff070c583bdae7e	1.0275321146135918
118	0x3f8ad7dfbe3b38b5	0.013107059471988295
119	0x3ff03f70ab213321	1.015488308406198
120	0x3ff0325a725e2755	1.0122932879916864
121	0xc003d74069a3fc34	-2.480103326146059
122	0x3f8ef072f5d99bb0	0.015107057693240694
123	0x3f93e3573ba81f8b	0.019421923652799527
124	0x3fb009d5127df2d6	0.06265002919640081
125	0x3fa453c5cfe89efa	0.03970163500735953
126	0x3f366af74c13e60e	0.00034206903008246546
127	0x3ff6bdfaa968179a	1.4213816277929028
128	0xbfc6609b24c9ee35	-0.17482318207099615
129	0x3fc18249a5522cf6	0.1367885644179762
130	0x3ff3a0cefa6a7903	1.226759889781136
131	0xbff10049e59f54b2	-1.062570473635145
132	0x3fc5e7b290b2d8a1	0.17113334718095977
133	0xbfc8e315165857b6	-0.19443000403469818
134	0xbff0ce351a957688	-1.0503436125212904
135	0xbff846cfe92549a4	-1.5172881228687425
136	0x3fd026d305938e22	0.252369647451106
137	0x3ffa02d661e36522	1.6256927322159034
138	0x3ff4636da0ad7fd5	1.2742744709466838
139	0x3f8682274ae514a2	0.010990435574635807
140	0xbfdfea23ad95b8ee	-0.4986657328762608
141	0xc000a580cb4dd7ee	-2.0808120616084045
142	0xbffea56fd10d8921	-1.9153898397567632
143	0x3f8d02fe00b63410	0.014165863415451369
144	0xbfbd5cc0931d518f	-0.11469653693831659
145	0x3ff11741341d1577	1.0681774173438876
146	0xbffe41051e197d1c	-1.8908740211262005
147	0x3f9104ef2db46771	0.016620385326951707
148	0x3ff51fea5b71f9f8	1.3202918598250317
149	0x3fe3cc45d56b3510	0.6186856430373684
150	0xbfad576d9ef03b7d	-0.057307649280224894
151	0x3f804b8042211ab9	0.007956506746393687
152	0xbff1c1629033f7cc	-1.109713137906044
153	0x3f8d29f6ca3e6822	0.014240196272840736
154	0xbf9370e3c602a420	-0.018985327683058384
155	0xbff0624f63e86d6c	-1.0240014937069999
156	0xbff02d7ccffebd82	-1.011105358582285
157	0x3f95df6212ef9940	0.02135995140624769
158	0x3ff085977950245a	1.032615159873123
159	0x3ff038e2b4672329	1.0138880774486074
160	0xbfd2b45d76077536	-0.29225861097605177
161	0xbfcb195a6f807eee	-0.21171122021132
162	0xbfc7103819ac0c50	-0.1801824689247007
163	0xbff32ee10ef20eeb	-1.198945101147667
164	0xbff44199fe2e9bf1	-1.2660159996973983
165	0xbff7108c56c24213	-1.44154008760609
166	0xc004bfddf01ea8a1	-2.5936850318294806
